demo/PRFDN_x2.pth (torch, 152251 bytes, 70 tensors)

weight f4 [23, 12, 3, 3]
000000 5b fe 4a 3e d3 24 08 be bf 71 66 bd 2f c4 55 3e
       0.19823591 -0.13295297 -0.05626082 0.2087562
000010 c3 9f 08 be 25 5b 39 3e d8 34 23 be b9 3d 26 be
       -0.13342194 0.18101175 -0.15938127 -0.16234483
000020 2b e3 ad 3d 78 ad 00 be 4f c8 66 3b b4 bc 36 3e
       0.084905945 -0.12566173 0.0035214608 0.17845422
000030 23 1c 0d 3e 94 83 8e 3e 7a 0a b8 bc e2 d4 09 be
       0.13780265 0.2783476 -0.022465933 -0.13460115
000040 6b 3e 6d 3e 0d ba a6 bd f5 3f cb bd aa a1 9d 3d
       0.23168342 -0.08140955 -0.09924308 0.076968506
000050 68 d7 e5 bd c9 ac 17 3e 3a 73 58 3e 1c 66 f6 bd
       -0.11222726 0.14812006 0.21137705 -0.120311946
000060 10 88 42 be d9 d1 7d bc 2c f1 8a 3d af 47 bb 3d
       -0.18997216 -0.015491926 0.06784281 0.09144532
000070 5f 30 66 3d ad b7 9a 3d 3b ca 09 3d 9c d3 ea bc
       0.056198474 0.075545646 0.033640128 -0.028665356
000080 86 f5 13 bc 5b fe 89 3d 3c 5c 6f 3d 48 d7 bb bd
       -0.009030705 0.067379676 0.05843757 -0.09171921
000090 81 dc 89 bd 02 a3 93 3d 8a 71 e2 3d b2 80 8f bd
       -0.06731511 0.07208826 0.11056812 -0.070069686
0000a0 e6 77 5b 3d 2d 79 4f bd 4a 2d 7c bc 10 a8 7c 3d
       0.05358114 -0.05065267 -0.015391657 0.061683714
0000b0 08 60 07 bc 99 76 66 bb 2b 93 4a 3d ae c6 d5 3d
       -0.008262642 -0.0035165905 0.049456757 0.10438286
0000c0 ff e7 01 bd fa 00 1f 3a e9 3d d7 bc 3d 2a 98 3d
       -0.03171539 0.0006065514 -0.026274638 0.07429931
0000d0 78 3e 8c bd 2f 34 c2 bb 1c ee 85 3b c5 9f 94 3d
       -0.068478525 -0.005926631 0.0040872227 0.07257036
0000e0 eb ac 8d 3c 39 5b 80 3d ed 3a aa 3c a2 ae 9e 3d
       0.017294368 0.06267399 0.020780051 0.07748152
0000f0 af 3a 36 bd 0c a5 d5 bc 01 5a 9c 3d a1 b5 a7 3d
       -0.04448956 -0.026079677 0.076343544 0.0818894
000100 11 28 ed bc 86 0a 80 bd b7 44 2c bd 46 df 8a bb
       -0.02894977 -0.06252007 -0.04205772 -0.004238042
000110 0f aa 65 bd 2e 4b 36 3d 44 25 8a 3d 73 07 9f bc
       -0.056070384 0.04450529 0.06745389 -0.019412732
000120 7c 04 e2 bd 22 8c c4 3d 1d ec 9a 3b a7 cc 3d 3d
       -0.110360116 0.09597041 0.004727854 0.04633775
000130 11 41 94 3d 30 e3 74 3d 86 99 e8 bd 2f 5b 35 bc
       0.07238973 0.059786975 -0.11357407 -0.011069103
000140 28 d1 9c 3d 19 94 94 bc df 1b 27 bc 53 af 05 bd
       0.07657081 -0.018137025 -0.010199516 -0.032637905
000150 b0 e0 76 bd 25 dc cf 3d b8 0e 5d bd fb 95 41 bd
       -0.060272872 0.10149411 -0.053969115 -0.047262173
000160 a7 ec d7 3c 97 a5 90 3d 4b 9c 14 3d 61 78 3b bd
       0.026357962 0.07062834 0.036281865 -0.0457691
000170 a9 52 e4 3c 70 df 1e 3d cc e2 22 3d 28 c7 a7 3d
       0.027871447 0.038787305 0.03976707 0.08192283
000180 ff 3f 96 bd e4 61 29 bc 50 59 49 3d 01 45 2b bd
       -0.07336425 -0.01033828 0.04915744 -0.041813854
000190 29 58 9c 3d 48 8c ce bc a4 cb ed 3c eb d2 84 3d
       0.07634003 -0.025213376 0.029027767 0.06485542
0001a0 fc 27 a0 3d 31 a0 8d 3d 46 2f b3 3d f8 72 5a 3d
       0.078201264 0.0691532 0.08749251 0.0533323
0001b0 64 64 98 3d a3 43 b9 bd 92 08 1f be 3d 9b fd 3d
       0.07441023 -0.09046104 -0.15530613 0.12383125
0001c0 6c c1 71 bc 9c f2 17 3e 3d 98 16 3e 0e ce 87 bd
       -0.014755588 0.14838642 0.14706512 -0.06631099
0001d0 11 b2 a3 bd a1 e8 bc 3c 06 9c 2d be 57 d4 86 3d
       -0.07992948 0.023060145 -0.1695405 0.06583469
0001e0 57 16 ee bd 34 6a 46 be 0c 4c 11 be 0d d6 73 3d
       -0.11625355 -0.19376451 -0.14189166 0.059530307
0001f0 6e 2a f2 bd 90 94 1e be c3 cb 4f bd 2d 2d a5 bd
       -0.11824499 -0.1548636 -0.05073143 -0.08065257
000200 a1 d6 25 be e0 e3 98 3d e2 36 6f 3c 25 25 02 3e
       -0.16195156 0.07465339 0.014600487 0.12709482
000210 97 59 0d 3e 90 23 f0 bd c0 cf b8 bd ee f1 30 bd
       0.13803707 -0.11725533 -0.09024 -0.043199472
000220 75 f0 94 bc fc b0 8c 3d fd 7b b4 3d c0 a7 90 3d
       -0.018181065 0.068696946 0.088127114 0.07063246
000230 d0 96 f2 3c cc b9 67 bd 0f 57 14 3e d6 23 81 bd
       0.029612929 -0.056573674 0.14486335 -0.06305663
000240 7e 2d 22 bd 11 b6 6e bd c0 15 8c 3d 73 24 4f 3c
       -0.039594166 -0.0582791 0.06840086 0.0126429675
000250 01 19 42 bd 7f 04 c6 bc 67 63 3b 3d 9b 30 e1 3d
       -0.047387127 -0.024172066 0.045749094 0.10995599
000260 e8 d7 1d 3d 6e 32 a7 bd 24 c8 91 3d d6 91 47 bc
       0.038535982 -0.081639156 0.07118252 -0.012180766
000270 99 59 dd 3c 8b ce 1d 3e 33 8c 4f bd 95 b1 21 3c
       0.027020263 0.15410821 -0.050670814 0.009868999
000280 08 1b c6 bc 33 b7 3d bd 5a 36 ad 3d 55 5c 83 bd
       -0.024182811 -0.04631729 0.08457632 -0.06414095
000290 75 95 35 3c fe 07 da 3c 2d 83 ed 3d 9d 8a c8 3d
       0.011082997 0.02661514 0.115972854 0.097920634
0002a0 6f 2e b7 bd 2f 7f 48 3c 2f 0c 06 bd e6 d3 21 bd
       -0.089444034 0.012237354 -0.032726463 -0.039508723
0002b0 ef 39 18 bd 5b e3 9a bd 8d 77 99 3c 8b 6b d2 bd
       -0.037164625 -0.07562896 0.018733764 -0.102744184
0002c0 09 22 c0 3d 80 5a 5d 3c 86 db 05 bd c5 72 a3 3c
       0.09381492 0.013510346 -0.032680057 0.019952187
0002d0 6e ef 92 bb 03 1c 12 bc bc da e3 38 16 ab 57 3d
       -0.0044841086 -0.008917811 0.00010864946 0.052653395
0002e0 d4 60 9e 3d 10 7b a7 bc ef bc b4 3a 3e 23 ae bd
       0.07733312 -0.020444423 0.0013789217 -0.08502816
0002f0 90 c2 7b 3d 94 7f dc bb 4f f7 a0 3d 3b f8 39 bd
       0.061464846 -0.0067290757 0.0785967 -0.045402747
000300 33 db f5 3c 6b ef 4e bb 84 e5 3b bc ba 09 c6 bd
       0.030011749 -0.003157581 -0.011468295 -0.09669824
000310 fe 8e 3a 3d 2d 93 78 3d 47 ce 01 bd 44 1c 68 3d
       0.045546524 0.060687233 -0.031690862 0.05666758
000320 b3 da 64 bc c1 94 90 bd 73 10 03 be e0 a9 57 3c
       -0.013968158 -0.070596226 -0.12799244 0.01316306
000330 6c ed aa 3d fa c6 94 3d b8 71 93 3d c1 bf a0 bd
       0.08346066 0.07264514 0.071994245 -0.07849074
000340 b8 fc ce 3d 22 2b 58 bd 1a 43 41 3d 98 07 05 3e
       0.10106796 -0.05277551 0.047183134 0.12991178
000350 f7 00 b0 bd d2 61 32 bb a5 92 7a bc 42 09 c0 3d
       -0.08593934 -0.002721895 -0.015293752 0.09376766
000360 42 e9 90 3c 73 a6 4d be 94 b1 ed bd 79 3f 16 be
       0.017689351 -0.20083027 -0.11606136 -0.1467265
000370 eb d5 47 be 2e ab 0c 3e 5f 0a 9a 3d be 74 84 be
       -0.19515197 0.13737175 0.075215094 -0.25870317
000380 f5 38 96 bc f1 95 a8 3c 07 46 81 3d c8 7f 3f 3e
       -0.018337706 0.02057931 0.06312185 0.18701088
000390 4c 2c 69 3d 51 26 48 3e bc 46 c6 bd a4 19 24 bc
       0.05692701 0.19545867 -0.0968146 -0.010015879
0003a0 a9 1f 2e be 46 13 09 3d 7e 65 41 3e a4 9b fa 3d
       -0.17004265 0.033465646 0.18886372 0.12236717
0003b0 2c 1d 43 3e 55 81 72 bd ad 8b ea bd ef f1 80 3d
       0.19054097 -0.059205372 -0.11452422 0.06296145
0003c0 a1 22 2a 3e 16 cc 48 be bd a2 db bd 3d 16 89 3b
       0.16614772 -0.19609103 -0.10724399 0.004183559
0003d0 32 c9 75 bd 42 0e b3 bd 03 ed 93 3d 2f fc bb bd
       -0.060006328 -0.08742954 0.07222941 -0.091789596
0003e0 79 bd 9d 3d c5 6b 05 bd 95 c5 60 bd e9 d5 4c 3d
       0.07702155 -0.03257348 -0.05487593 0.050008688
0003f0 00 ae f2 3b 57 7a b8 bd 4a 02 4c 3d 45 71 7b 3d
       0.0074059963 -0.090077095 0.04980687 0.06138732

bias f4 [23]
000000 35 7e 1a 3e 1e 93 24 3e f0 1c cd bc 4f aa a6 bd
       0.15087207 0.16071746 -0.025038213 -0.081379525
000010 8f f7 74 3c b1 2f 3f 3e f5 76 45 3e c0 e1 7f 3e
       0.014951601 0.18670537 0.1928366 0.2498846
000020 92 2a ba bf 4f 47 a4 3f ed 2b 70 be 5a 6f 57 3f
       -1.4544241 1.2834262 -0.23454256 0.84154284
000030 07 6b 39 3e 45 d7 57 3e e5 35 1f 3f 30 4d f0 be
       0.18107234 0.21078213 0.6219161 -0.4693389
000040 4c b4 95 be db b7 f1 3d 4a 43 55 3e a1 2b c6 3d
       -0.29239118 0.11802646 0.2082645 0.0967629
000050 32 94 f3 bb f7 d5 07 bf 9f c1 16 3f
       -0.0074334377 -0.5306086 0.5888919

weight f4 [5, 22, 1, 1]
000000 ae 2f 94 3d 60 44 16 bc 32 c2 10 bd c8 c5 6e bc
       0.07235657 -0.009171575 -0.03534145 -0.014573522
000010 c1 b2 2d 3e 07 00 fb 3b 12 b7 11 bd 23 e2 b0 bc
       0.1696272 0.0076599154 -0.03557498 -0.021592205
000020 ca f1 27 3d 7b c1 7d bc 87 e8 71 3b cb b3 ab 3d
       0.041002072 -0.015488024 0.0036912279 0.08383902
000030 d7 f3 e5 bd 76 6f 5f bd 4d ff 8a 3d 2c 94 98 3d
       -0.112281494 -0.054549657 0.06786976 0.074501365
000040 85 25 08 bc 1b 57 d0 3c 22 17 b3 bc d7 9e 66 bd
       -0.008309727 0.02543216 -0.021861617 -0.056303825
000050 81 db 86 be 46 f6 67 3d f8 ab 9a 3f a3 3e e2 bd
       -0.26339343 0.05663135 1.2083731 -0.11047103
000060 1f 7d 74 3b be 37 61 3d 6c f4 fe 3c c5 b4 77 bb
       0.0037306023 0.0549848 0.031122409 -0.0037796956
000070 0f db 3f bc 0c a9 1d bd ab 0c 2c bd 7d 1d db bb
       -0.0117099425 -0.038491294 -0.04200427 -0.006686865
000080 37 44 e8 bc 50 2f 9e 3d f5 d2 35 be 83 96 80 bd
       -0.02835284 0.07723868 -0.17756255 -0.06278708
000090 94 af b6 3c 44 3e 99 3d 85 cf a4 3d 5d f6 a1 3d
       0.022300519 0.07482579 0.08047394 0.07908318
0000a0 5a 34 40 bc 79 28 39 be 3c 97 55 3e a6 4c b2 3d
       -0.011731232 -0.18081845 0.20858473 0.08706026
0000b0 e4 64 bd 3c 46 07 e9 ba 5a fd 84 3f a1 ab 20 bb
       0.023119397 -0.0017778657 1.0389817 -0.0024516361
0000c0 61 0a 8e bd be b8 d5 bc 29 a1 28 3d b9 cf 71 3d
       -0.06935573 -0.026089069 0.04116932 0.05903599
0000d0 aa c0 99 bd 46 be 29 3c 50 12 fc 3d 09 76 c5 bd
       -0.07507451 0.010360306 0.1230818 -0.09641654
0000e0 83 5d 4a 3b 72 72 e7 bb 49 32 65 bd aa 50 7d bd
       0.0030878491 -0.0070632035 -0.05595616 -0.061844505
0000f0 fc 90 b7 bd e9 ea 57 3c 72 09 3b 3d 83 6f 2f 3e
       -0.089632004 0.013178566 0.045663305 0.17132382
000100 9b a7 c4 3e 4b 9e 37 3d 94 a0 af 3c 8b 85 1a bc
       0.38409123 0.044828694 0.021438874 -0.009431253
000110 06 42 02 3c 57 39 82 3f b1 dc b2 3d c3 98 db 3c
       0.0079503115 1.0173749 0.087335 0.02680624
000120 7b 5a 40 3c fe 13 64 3d 7f 2b c2 3c a5 41 e6 3a
       0.011740322 0.05568313 0.023702381 0.0017567171
000130 b3 e9 f2 3d 7f 95 b0 bd 7d dc 7c bd 4c dd 16 3d
       0.11860981 -0.08622264 -0.06173371 0.03683214
000140 df 3a be bd 17 74 9c bd d4 41 39 bd 90 d7 bd ba
       -0.092885725 -0.0763933 -0.045228794 -0.0014483798
000150 aa 7f 2b 3d 9a 3b 56 3e 0b ba 48 3e 66 f1 06 3d
       0.041869797 0.20921174 0.1960222 0.03294506
000160 e9 91 b7 b8 88 d7 99 bc 9e e1 25 bd 0a 8c 4b 3d
       -8.753298e-05 -0.018779531 -0.04049837 0.0496941
000170 6a 51 aa 3f 16 3e 4f 3d bf 26 83 bc 65 99 38 bc
       1.3306096 0.05059632 -0.016009687 -0.011267041
000180 cb 8e 1a 3d 63 47 fc 3b 65 e4 35 bc 53 e7 2d bd
       0.037733834 0.0076989396 -0.011101817 -0.042456936
000190 e9 6b 42 3e ca 60 f3 3d 5a b5 05 3d 07 d8 a2 bd
       0.18986477 0.118836954 0.032643653 -0.0795136
0001a0 58 d3 86 bd cd 01 3a bd d3 7d 9e bc 32 df b3 3c
       -0.06583279 -0.045411874 -0.019347107 0.021957014
0001b0 6f 3a c9 be a4 5b c4 bd
       -0.39302394 -0.095877916

bias f4 [5]
000000 a3 2c 92 3d 9c 93 a7 bc 51 a1 bb bc b1 1e 9c 3d
       0.0713742 -0.020456128 -0.02290407 0.076230414
000010 87 09 4f 3d
       0.050546195

weight f4 [11, 22, 1, 1]
000000 13 e4 f3 bc bf fa f6 bd df 0e 83 bd 40 1f 43 3c
       -0.02977184 -0.12059545 -0.06399321 0.011909306
000010 68 06 a2 3d 86 f4 ca bc ce e0 cd bd 69 2a 1c bd
       0.07911378 -0.024774801 -0.10052644 -0.038126383
000020 42 dd 6c 3d 7a e2 7c 3c f5 ca 07 3d f6 81 5f bc
       0.057828195 0.015434856 0.03315254 -0.013641825
000030 d7 ca 06 3e bb d5 c1 bd b2 b2 c7 3d ad 10 66 bd
       0.13163315 -0.09464594 0.0975088 -0.056168247
000040 45 e1 c1 bb 74 c7 fc bc 81 05 2b 3d a8 21 07 be
       -0.005916747 -0.030856825 0.041753296 -0.13196433
000050 36 ed f8 bd 31 d4 0c bd d6 68 7b bd 78 31 ee bc
       -0.121546194 -0.03438205 -0.061379276 -0.029076323
000060 29 ae 55 3d 7b ff 53 3c 20 4b 84 bc bf 96 0d 3d
       0.052168045 0.012939329 -0.016149104 0.03456759
000070 93 87 06 bd 36 c6 44 3d 60 c7 a5 3d 1a 58 c2 bd
       -0.032844137 0.04804059 0.080946684 -0.0948946
000080 80 c9 4d 3f 66 6e a8 bd 41 a7 88 3d ec c5 c1 bd
       0.8038559 -0.08224182 0.06672526 -0.09461579
000090 3b 2e 2a 3c c1 82 39 bd 0a 7c fb bb 03 23 76 be
       0.010386999 -0.045290712 -0.0076746987 -0.24036793
0000a0 90 67 ff 3c bc f0 87 3e a5 b7 7e be fd b4 35 3d
       0.031177312 0.26550853 -0.24874742 0.044362057
0000b0 c8 88 dd 3b b6 20 e3 bd c6 ec fd bc 9e 36 d0 3c
       0.0067606904 -0.110902235 -0.030996691 0.025416669
0000c0 96 a9 ab 3d 78 cb 97 ba 99 c3 5c 3c 1b 0b a0 3d
       0.08381955 -0.0011581024 0.0134743685 0.07814618
0000d0 73 43 a2 3d 29 88 0e bd 1a 4e fe be 2c 26 5a 3c
       0.07923021 -0.03479782 -0.49668962 0.013314765
0000e0 93 fc 41 bd cf ab 6c bd 33 2c df bd ef ae d2 bc
       -0.047360014 -0.057781037 -0.10897102 -0.02571818
0000f0 17 da 9e 3d 6f d4 39 3d fe 64 19 bd dd 13 d8 3d
       0.07756441 0.045368608 -0.03744983 0.105506636
000100 f8 db 34 bd 6e 02 16 3d 98 98 a4 ba ed 75 15 bd
       -0.04415509 0.03662341 -0.0012557684 -0.036489416
000110 b9 dc 33 3b 99 c4 1a 3d 96 12 b3 3d 24 c6 db 3d
       0.0027444793 0.037785146 0.08743779 0.10731152
000120 c8 dd 9c bd e5 6e 7f bc ed 0c a0 3e ff e7 14 bb
       -0.07659489 -0.015590404 0.31259862 -0.0022721288
000130 3d 7f c7 3e 76 8b 81 3c fb 2d e0 3d fb 3d 52 3d
       0.38964263 0.01581357 0.1094627 0.05132864
000140 d6 cb be be db fa ad 3d b5 87 83 3d c2 c6 2e bd
       -0.3726489 0.084951125 0.064223684 -0.04267002
000150 e5 01 5a bd ca ad b4 3c a0 e1 13 be 52 7d a6 bc
       -0.053224463 0.022055525 -0.14441538 -0.02032343
000160 76 3b ad ba 23 c6 86 bd 04 9c 31 3c c0 b8 0a bd
       -0.0013216573 -0.0658076 0.01084042 -0.033867598
000170 58 d1 41 3d bc c7 c3 bc 1a 4f 80 bd 46 ea 21 bd
       0.047318786 -0.023898952 -0.062650874 -0.03953006
000180 e1 63 19 3e 47 80 9e bd 21 c4 b6 3e 31 72 d1 3d
       0.14979507 -0.07739311 0.3569651 0.102268584
000190 5f 07 24 3d 40 30 88 bd f4 3e 3d be ec 3b a7 3d
       0.040046092 -0.06649828 -0.18481046 0.08165726
0001a0 39 68 d5 bb e3 2f 03 3d b2 54 a8 bd e1 ba 19 be
       -0.0065126684 0.03202809 -0.08219279 -0.15012695
0001b0 20 c0 ea 3c 9d 92 86 be 0a 16 08 3c e9 72 5a bc
       0.028656065 -0.26283732 0.008306036 -0.013333061
0001c0 8d c0 c2 bd a0 d5 89 bc 33 02 18 bd e8 b7 0a bc
       -0.095093824 -0.016825497 -0.037111472 -0.008466698
0001d0 17 3b d1 bd b5 72 a0 bd de 3a c3 3d 4b c2 39 3d
       -0.102163486 -0.07834379 0.095327124 0.045351308
0001e0 8a 9d 5d 3e 24 d4 89 bc 38 b3 d1 3c df 0b 66 bd
       0.21642128 -0.01682479 0.025598153 -0.056163665
0001f0 ee 3e 78 bd 74 59 7f 3d ba ff 22 3d dc 18 a8 bd
       -0.06060689 0.06234117 0.03979466 -0.082078665
000200 c5 8e 15 bd 94 48 90 bc a2 41 23 be ad c2 78 be
       -0.03651311 -0.017612733 -0.15943006 -0.24293013
000210 89 b6 81 3c b8 74 65 bd 4c 5d b1 bc 29 03 5f bd
       0.01583411 -0.056019515 -0.021650933 -0.054446373
000220 53 31 4c 3d ec 74 3b 3d 72 8a e4 3c 70 4b a4 bd
       0.049851727 0.045765802 0.027898047 -0.08022201
000230 55 8c 26 bd 27 d4 cf 3b 96 6c e5 be 54 16 27 bd
       -0.040661175 0.006342429 -0.44809407 -0.040792778
000240 e6 27 5e be 5f eb 50 3d 8a 53 da 3e 0a f4 85 bd
       -0.21694908 0.051005717 0.4264186 -0.065406874
000250 2e d0 fa bc 02 29 35 be a1 ea 9e bd eb 3c b7 3d
       -0.030616846 -0.17691424 -0.07759596 0.08947166
000260 18 3e 36 be 4c 0c e1 bc 2d 90 31 3d 88 1d ba bc
       -0.17797124 -0.027471684 0.043350387 -0.02271916
000270 c9 93 46 bd ab 18 90 bd ed ce 1a bd 17 57 9f 3d
       -0.048480783 -0.07035955 -0.037794996 0.07780283
000280 3f 4c a5 bd c5 95 c3 bd 02 6c af 3e 22 41 8d 3d
       -0.080711834 -0.09550051 0.3426209 0.06897189
000290 38 ce a5 3e 45 93 7b bc 13 61 ec 3c 82 53 70 3d
       0.32383895 -0.015354936 0.028854882 0.05867339
0002a0 98 fb 4f be 57 06 11 bd df 51 65 3b dc e5 18 3d
       -0.20310819 -0.035406437 0.0034991426 0.037328586
0002b0 42 0c af 3c 18 16 b2 3b 6b 22 89 be 1d 9b a4 3d
       0.02136815 0.0054347627 -0.2678407 0.08037398
0002c0 0c 90 9d 3c 45 7b 98 bd 21 9a 33 bd c0 56 3d bd
       0.019233726 -0.07445387 -0.04384816 -0.04622531
0002d0 f1 bd 00 bd 11 51 96 3d 8d d1 9e bd 47 04 6f 3d
       -0.031431142 0.07339681 -0.077548124 0.05835369
0002e0 6b 6e ad 3b fd a7 00 bd 09 33 de 3d 01 f7 ee 3b
       0.005292704 -0.031410206 0.10849578 0.0072926288
0002f0 e1 9a 84 bd ff c8 5e 3d fd 7d 27 bd 11 68 5f bd
       -0.06474853 0.054390904 -0.040891636 -0.054542605
000300 f8 1e 28 bd b0 3d ae bd 9f fd fd 3c 3b 12 33 3e
       -0.04104516 -0.0850786 0.031004725 0.17487423
000310 b7 91 94 be b7 68 8f bd d3 9e 11 bd 65 01 87 3c
       -0.29017422 -0.07002395 -0.035551857 0.016480157
000320 67 19 75 bd f8 c0 a8 bd 7d e1 07 be fc 60 5c 3d
       -0.05983868 -0.08239931 -0.1326961 0.05380343
000330 47 de 9a bd b6 b1 f5 3c 6d 4a 32 3e b1 f6 6a 3c
       -0.07561927 0.029991966 0.17411204 0.014341042
000340 23 3f f6 3e 19 f2 92 3d 28 18 b0 3a cb db af 3c
       0.48095044 0.07175083 0.0013434933 0.02146711
000350 9b b8 29 be fb c7 05 3e 6a 17 8b 3d c3 fd 43 3d
       -0.16574328 0.13064568 0.06791575 0.047849428
000360 b6 ab 05 3d 7a 19 4b be ab 39 9d bd e4 83 58 be
       0.03263446 -0.19833937 -0.07677015 -0.21144062
000370 a5 82 9b 3c 89 1e a2 3d fe 5c 46 3d 41 76 df 3c
       0.018983195 0.0791598 0.048428528 0.027278068
000380 51 2e ce bd 15 d0 50 3d 7c 49 b2 3c ea 35 7a 3d
       -0.10067428 0.050979692 0.021763556 0.061086573
000390 a0 f7 8c 3c f0 95 77 3d ec f1 be 3e 3c 58 14 bd
       0.01720792 0.060445726 0.37293947 -0.03621696
0003a0 b7 75 3c bb 37 d2 ac bd ec c3 43 be f6 4a e8 bc
       -0.0028756687 -0.08438533 -0.19117707 -0.028356057
0003b0 80 6a c5 3d e9 d5 63 bd a5 c0 e9 bc 8a b5 b7 bd
       0.09639454 -0.055623922 -0.028534243 -0.08970173
0003c0 2f 9e 8f 3d c6 57 ad bd
       0.07012593 -0.08464007

bias f4 [11]
000000 e5 f2 28 3f d1 6a 47 3c a1 f6 ae 3d 46 b2 b9 3e
       0.6599563 0.012171463 0.085431345 0.36268824
000010 5c 06 35 3c c0 ac 3b bd be a5 36 3e f7 78 43 3e
       0.0110488795 -0.045819044 0.17836663 0.19089113
000020 50 16 56 3d 26 39 b2 3d e0 18 98 3e
       0.052267373 0.087023064 0.29706478

weight f4 [22, 22, 3, 3]
000000 c3 e0 6e 3d cd a0 82 be 28 70 2b bd b3 a7 76 be
       0.05831982 -0.25513306 -0.041855007 -0.2408741
000010 d9 e7 12 be 28 e3 30 be 00 21 7c 3d 09 d4 68 be
       -0.14346255 -0.17274153 0.06155491 -0.22737135
000020 ab f5 8d 3c 8b 3b bf 3d c1 05 b7 3c 7e 0f 88 3d
       0.017329058 0.09337529 0.02234161 0.0664358
000030 fd 5a c6 3d 51 8b 07 ba b8 e1 f9 bc 83 a8 fe bc
       0.096853234 -0.0005170601 -0.030503139 -0.031086212
000040 da cd cb bd c6 d5 8a 3d 2d d0 d1 3c 05 84 77 3d
       -0.099513724 0.06779055 0.025611961 0.060428638
000050 48 da 8f bd e0 76 f5 bd 27 e4 f8 bb 45 eb f7 3c
       -0.07024056 -0.11985564 -0.0075955573 0.030263552
000060 a4 65 5f bd 9c 4f 48 bb 39 2f 1a bd d3 62 e0 3b
       -0.05454029 -0.003056503 -0.03764269 0.0068477183
000070 cd fe 4d bd 5d 96 d3 3a c5 fc fc 3c b5 ed d2 bc
       -0.050291825 0.0016142834 0.030882249 -0.025748113
000080 d1 9a 49 bd b1 56 21 3b 2b be 0b bc 89 38 0c 3d
       -0.04921991 0.0024618322 -0.008529226 0.034233604
000090 07 1a 09 3d e5 f1 b1 be fe af 06 3e 0c 5f fa 3d
       0.033472087 -0.34754863 0.13153073 0.1222516
0000a0 3c 6f b5 bd b1 7e 1e bb 46 8c a8 bd 56 57 21 be
       -0.08859107 -0.00241844 -0.0822988 -0.15755972
0000b0 7e 9d 8f 3d d4 3b bd 3c 2f 37 36 bd c8 86 96 3c
       0.07012461 0.023099817 -0.04448622 0.018374816
0000c0 0d 3c b5 3d 8d 55 47 3d 9d c7 46 3d e9 72 70 3c
       0.088493444 0.048665572 0.04853021 0.014675834
0000d0 07 8f 3e 3c c7 d7 e1 3c e5 c9 70 bc 7f d2 93 ba
       0.01163078 0.027568711 -0.014696573 -0.0011277943
0000e0 56 75 fb b7 5c e9 68 bd 0f 72 bb ba 9b cf b5 bc
       -2.997617e-05 -0.056863174 -0.001430096 -0.02219372
0000f0 5c f0 bb bc 92 2a 32 bd 2f 0f cc bc 32 46 84 bd
       -0.02294176 -0.04349763 -0.024909584 -0.06458701
000100 21 d0 81 bd ca ff 55 bd ac 6a fd bc 30 69 4a 3b
       -0.063385256 -0.052245893 -0.030934654 0.003088545
000110 4a f9 04 bd be 27 ca 3c 4f 81 fc 3c 92 be a0 bc
       -0.032464303 0.024677154 0.030823378 -0.019622121
000120 88 d8 9c bd 48 16 a3 bc 3f 88 90 3b de c3 8c 3d
       -0.076584876 -0.019908085 0.004410773 0.06873296
000130 69 3b 93 3d b8 fd 81 3d 2f e3 71 bc 12 ae b3 3c
       0.07189066 0.06347221 -0.014763637 0.02193359
000140 ae 85 ad bb 4c 86 a2 3d 8f c9 cf 3d 5e fe e3 3d
       -0.005295477 0.07935771 0.10145866 0.11132501
000150 82 8d 72 bd 78 f7 b5 bc ec 5f 05 3d 7b ff e8 bd
       -0.059216984 -0.022212729 0.03256218 -0.11376854
000160 cb d7 bc bc 32 50 1b bd e1 4d 35 bd 7c 2f aa 3e
       -0.023052117 -0.037918277 -0.044263724 0.33239353
000170 c2 13 f9 bb 52 fa a5 3d 8b 62 e0 3d 08 7e a5 3e
       -0.0076012323 0.081043854 0.109562956 0.32322717
000180 ea e7 9a 3d b9 32 4a 3e e9 45 32 3e 68 e5 12 3d
       0.07563765 0.19745912 0.17409481 0.03586331
000190 81 9d 88 3c 5e 0f bf 3b 0c 14 0b bd 48 01 d3 bc
       0.016676666 0.0058306893 -0.033954665 -0.025757447
0001a0 2d 98 8c 3d 2d 40 52 3b 53 76 b1 bc 2f f4 ef bc
       0.06864963 0.0032081709 -0.021662867 -0.02929124
0001b0 62 06 af 3d d4 b0 b6 bc 1a 47 2a 3d 83 d9 cd 3c
       0.08546139 -0.022301115 0.041571714 0.025128132
0001c0 d9 8f 2f bc 2f 5a a0 3c de 07 b6 3c 27 cd eb 3b
       -0.010715448 0.019574253 0.022220548 0.007196087
0001d0 c3 b1 05 bd 1c a4 24 bd 95 47 98 bc dc c7 ac bb
       -0.03264023 -0.04019557 -0.01858882 -0.0052728485
0001e0 93 2e 5d bd c8 96 dd bc 29 f6 df bb ad 4c 57 bd
       -0.053999495 -0.027049437 -0.0068347645 -0.052563358
0001f0 ea 8c ae bc ad 14 f6 bc f6 36 b1 bd 36 fb 30 be
       -0.021307427 -0.030039156 -0.08653061 -0.1728333
000200 eb 49 16 be 6c 0e 71 3c 1c fc a5 3d 8e 94 38 be
       -0.14676635 0.014712911 0.08104727 -0.18025419
000210 1e f0 53 3c 8a 92 8f 3d 7f 32 36 be 29 85 3e 3d
       0.012935666 0.07010372 -0.177927 0.04651371
000220 c0 8e ae 3d 0f c4 0e bd 09 1e 80 bd cf ed 10 ba
       0.08523321 -0.034854945 -0.06255729 -0.00055286003
000230 7e 2c 65 3c 40 5b ab 3c 8f dc 37 bb f1 fe 99 3b
       0.013987659 0.020917535 -0.0028055047 0.004699581
000240 a0 20 e9 3b 40 61 8d 3d 4d 23 64 3c 00 e6 7c bd
       0.007114485 0.069033146 0.013924432 -0.061742783
000250 50 de c2 bc 23 35 06 3d 22 ad c7 3b be 61 39 bd
       -0.023787647 0.03276552 0.006093637 -0.04525923
000260 74 e7 8b 3c 4a 20 e4 3a 6b 8d 31 3d 5d 74 ff 3c
       0.017078139 0.0017404642 0.043347757 0.031183416
000270 d2 79 59 bd bd 8f ac ba c3 d3 b3 bc 42 7c 80 bd
       -0.053094693 -0.0013165396 -0.021951562 -0.062737
000280 4c 88 21 bc 07 e0 5a bd 6d 96 fc bc c8 a4 ad bc
       -0.009859156 -0.053436305 -0.030833447 -0.021196738
000290 ce 53 c9 b9 0e 07 0e bd d3 f4 c6 bc dd 2c d4 bc
       -0.00038400147 -0.034674697 -0.024286663 -0.025900299
0002a0 ba 01 cf bc 51 20 44 bc cf cd 46 bd 4b 3c d2 bb
       -0.025269378 -0.011970595 -0.048536118 -0.006415879
0002b0 89 1e b7 bd 1d e2 a9 bc 7f 6d b8 3d e2 ef 06 3d
       -0.08941371 -0.020737702 0.0900526 0.032943614
0002c0 7f 67 54 bd c6 b6 55 3d 0a a5 96 3d ac 55 b4 3c
       -0.051856514 0.05217626 0.073556975 0.022013508
0002d0 40 9e 12 be de 38 88 bd e3 87 0c be 7e e6 49 be
       -0.1431818 -0.066514716 -0.13723712 -0.19716832
0002e0 ba 61 24 3d ca 8d b7 3d 95 d9 e3 bc ad 37 b9 bd
       0.04013226 0.08962591 -0.027813712 -0.090438224
0002f0 67 76 f2 3c b6 a3 d9 bc 2e bf c9 bc b9 d4 b9 3c
       0.029597474 -0.026567321 -0.024627294 0.022684442
000300 85 01 96 3b 20 a0 89 bc e5 5c 2d bd 5f de 7d 3d
       0.004577818 -0.016799986 -0.04232492 0.061979648
000310 f6 6b 26 3b 8f 9a 3f 3a ff 88 64 bd 7c 2a 2f 3d
       0.002539394 0.0007309103 -0.055794712 0.042765126
000320 ff 39 1e 3e 8f c5 ce 3d 86 16 dc bd 77 6c 02 3e
       0.15451811 0.10096275 -0.107464835 0.12736689
000330 09 7c 6c 3d 4c c7 10 be 4f 3d e7 3d be 6d 32 bd
       0.057735477 -0.14138526 0.112909906 -0.04356169
000340 b4 6f cd bd 09 33 db bc 33 ad 93 3b 61 d2 68 39
       -0.10031071 -0.026757734 0.004506731 0.00022203616
000350 ef fa 4d bd 75 a8 fe bb ef d9 c9 bd 94 77 17 bd
       -0.050288137 -0.0077715465 -0.09856021 -0.036979273
000360 c6 3a 94 bb e8 39 c6 bd f1 e0 b9 3d 7c 90 36 3d
       -0.004523608 -0.096790135 0.09076107 0.044571385
000370 93 95 81 bc 05 57 de bd ba ac 1a 3d 1a 23 56 3d
       -0.015818393 -0.108564414 0.03776238 0.05227957
000380 e0 97 e4 bc c8 9b 69 3d 7e ae cc b9 0e 5f 4f bd
       -0.02790445 0.05703333 -0.0003903992 -0.05062776
000390 b1 d4 94 3d 34 cf 8b bd 5a 8c 1f 3d 4f 96 1e 3c
       0.0726713 -0.0682663 0.03895221 0.009679391
0003a0 79 26 37 bc 83 88 f6 bc 5e 40 60 3e db 91 43 3d
       -0.011178606 -0.03009439 0.21899554 0.04774652
0003b0 a1 c8 a5 3d 99 7b 2a bc 23 c4 34 be 19 8b 63 3d
       0.080949076 -0.010405445 -0.17652945 0.055552576
0003c0 26 75 33 bd eb 54 22 bd 65 d7 f5 3d 5a 1e b4 3c
       -0.043812893 -0.039631765 0.12003974 0.021987129
0003d0 33 8b c4 bc 3b c8 84 bc ce 11 c4 bb d9 47 2b bd
       -0.023992157 -0.016208759 -0.005983568 -0.041816566
0003e0 39 2c 06 bc 85 b9 ad 3c e2 82 53 3d 3b 45 14 3d
       -0.008189254 0.021206627 0.05163849 0.036198836
0003f0 23 97 55 bd 02 8c 5b bd 4a e6 c6 bc c5 5c 9e 3b
       -0.05214609 -0.05360032 -0.024279732 0.0048328363

bias f4 [22]
000000 1c 66 63 3f 77 90 4f 3f be 1c 67 be 9a 59 8f 3e
       0.8882768 0.8107981 -0.22569558 0.27998048
000010 1a ce 71 3e 71 73 9e 3e 8c 22 4d 3c 63 84 01 3f
       0.23613778 0.3094745 0.012520444 0.5059263
000020 d3 f5 3e bc 5a 04 a1 3e 02 f8 62 3e 8c a2 ac 3e
       -0.011655289 0.31448632 0.2216492 0.33717763
000030 3d 91 bc 3e 1b 26 4f be ed b2 8f 3e 06 3b 06 be
       0.36829558 -0.2022938 0.28066197 -0.13108453
000040 3c a7 a0 be ef fd 40 3e 32 0c a8 3d 4e da 90 3e
       -0.3137759 0.18846868 0.08205451 0.28291553
000050 32 69 b3 bd 9a 72 b8 3e
       -0.08760299 0.36024934

weight f4 [11, 22, 1, 1]
000000 94 4c 95 3c 97 14 70 bd e0 02 b5 bd fb 69 7a bd
       0.018224992 -0.058613386 -0.08838439 -0.061136227
000010 8c 36 3e 3d ce fc c1 bb d3 47 77 3d d7 00 cd bc
       0.04643874 -0.0059200292 0.06037123 -0.025024815
000020 6a 50 e3 bc ad 47 2d be 29 4d 0d 3d d8 e2 19 3d
       -0.027748305 -0.16921873 0.034497414 0.03756985
000030 a4 3c 71 3d 00 04 47 3d cf 8f 86 3d 68 74 39 bd
       0.058895722 0.0485878 0.06570398 -0.04527703
000040 d4 80 24 3d 5f ab e4 3c f4 a0 5f bc 37 4b ca 3c
       0.040161923 0.027913747 -0.013649214 0.024694068
000050 51 ca b5 3b c1 27 95 3e cc 9a 99 3b 6b 12 6b bd
       0.0055477996 0.29131892 0.0046876427 -0.05739061
000060 93 e2 00 bd 1c 9a 0c 3d 36 07 bb 3d fe f6 98 3c
       -0.031466078 0.034326658 0.09132235 0.018672463
000070 fc 98 31 bb dc 06 61 bc c0 4f 71 3d 73 0d 22 3d
       -0.0027099242 -0.013734546 0.058913946 0.039563607
000080 9d 89 88 3c e8 2e b9 bd dd 8d 9c 3d 42 9d 85 3e
       0.016667182 -0.0904215 0.07644246 0.2609654
000090 9d bf bc 3d d9 c7 1b 3d 5c e7 9c 3c 0f 51 97 bb
       0.09216235 0.038032386 0.01915329 -0.0046178172
0000a0 bb 21 14 bd 96 7e 54 3b c7 2c 54 bd 42 32 78 be
       -0.03616498 0.0032424084 -0.051800516 -0.24237922
0000b0 0e c2 8d 3c bb 70 4c bd b4 67 3a bd ca f7 b2 bd
       0.017304447 -0.049912196 -0.045509055 -0.08738668
0000c0 bf 1f d8 bc f7 e8 d6 3d 04 55 0f 3e dc 67 c6 3d
       -0.026382325 0.10493653 0.13997275 0.09687778
0000d0 68 b9 16 3e 6e 91 8f 3d aa 65 e6 3d 3c c5 5e 3c
       0.14719164 0.070101604 0.1124986 0.013596829
0000e0 91 66 33 be 59 d3 32 be 43 d8 06 be 00 02 12 3e
       -0.17519595 -0.17463435 -0.13168435 0.14258575
0000f0 e6 03 0d be be b3 07 3e a2 64 26 bd b4 c6 4d bd
       -0.13771018 0.1325216 -0.040623315 -0.050238326
000100 60 5c ca bc 24 53 1a 3e 49 3f 14 bb 0f cc 1b 3d
       -0.024702251 0.15070778 -0.0022620729 0.038036402
000110 b4 da 42 bc 3a 2d ed bd 41 3e e0 bc cd 91 15 bd
       -0.011892963 -0.11580892 -0.027373435 -0.036516
000120 b1 8d be 3d 89 c4 06 bd 32 63 1b bd 51 d3 07 3e
       0.09304369 -0.032902274 -0.037936397 0.13264205
000130 7a 5b 8a 3d a2 04 b3 3d a7 c3 bb 3d 24 6e 6d 3d
       0.06755729 0.08741118 0.09168177 0.057966366
000140 c8 85 f2 3d bc 3e ef bc 26 c2 26 be c7 bd ac 3b
       0.11841923 -0.029204719 -0.16284999 0.0052716467
000150 9c 7b 8b 3d 96 04 08 3e f7 e2 c8 3c 1a e5 5a 3c
       0.06810686 0.13283 0.024522288 0.013360286
000160 5f cb a7 3d 05 75 b7 bd 52 8c 5e bd ba f8 00 3d
       0.08193087 -0.089578666 -0.05433304 0.031487204
000170 d0 e0 a2 3d 9a d3 5c bd 88 72 78 3d e0 81 8e 3d
       0.07953036 -0.053912736 0.0606561 0.069583654
000180 14 c2 91 3d 1c 03 09 be 2f 0c 4e bc 94 50 b7 3b
       0.071170956 -0.13380092 -0.012576147 0.0055943225
000190 1b 94 3e bd 2b bf 82 3e c3 3b 72 3d 19 8c c6 bc
       -0.046527963 0.25536475 0.059139024 -0.024236726
0001a0 d1 f9 6d bd c9 b3 12 3d 39 3e b4 bc 20 05 d2 bc
       -0.05809957 0.035815988 -0.022002326 -0.02563721
0001b0 22 52 2b be 03 e0 40 3e 1e 93 88 bd 7a bc f3 3d
       -0.1673055 0.18835454 -0.066686854 0.119011834
0001c0 09 61 76 bd 2c d3 f5 bd d7 3d 1e 3d 37 f3 8a 3d
       -0.060151134 -0.120031685 0.038633194 0.06784671
0001d0 a0 fa f8 bb 74 0a 87 bd 05 54 02 bd c6 12 26 3d
       -0.007598236 -0.06593791 -0.03181841 0.040545247
0001e0 57 23 27 3d 4f 69 70 bc f7 99 e0 3b 2c 31 42 bd
       0.040805187 -0.014673545 0.0068542915 -0.047410175
0001f0 8c fc 83 3d bb 4a 60 3d 49 f5 74 3d 09 af a3 3d
       0.06444654 0.05475877 0.059804235 0.0799237
000200 26 74 9b 3d 6c 02 94 bd 3a a5 46 3e cf 05 74 3e
       0.07590513 -0.072270244 0.19398966 0.23830341
000210 14 20 85 3c c5 0f 27 bd 8c 52 20 3c 41 b7 2f 3d
       0.016250648 -0.040786523 0.009785306 0.042899374
000220 f3 b1 a3 3d 43 fc 0a bd a3 cd da ba df 26 3f bc
       0.079929255 -0.03393198 -0.0016693365 -0.011666982
000230 e4 b2 f9 3c 6e 7d c8 3d 43 53 5e 3c 67 27 1e bd
       0.03048081 0.09789549 0.013569656 -0.038611796
000240 c3 00 cb 3c 58 79 df 39 c3 a5 8c 3d a7 6a c9 3d
       0.024780637 0.00042624283 0.06867554 0.098347954
000250 68 5f 78 3c f3 c0 c7 3b ac 31 57 3e 1c 74 2f bd
       0.015159465 0.0060959994 0.21015042 -0.04283534
000260 34 a4 ae bd e1 db cf bd a8 d4 b3 3d c6 b9 15 be
       -0.08527413 -0.101493604 0.08780795 -0.14621648
000270 30 2b d9 bc 9b 63 54 3d ce 12 86 bc 20 35 0f 3c
       -0.026509851 0.051852804 -0.016366389 0.008740693
000280 39 fa f1 3d a6 a0 a5 bc b5 9b 99 3d 8d 8a 82 3e
       0.11815304 -0.020218205 0.07500402 0.2549633
000290 46 10 bd 3c a2 01 35 3c b3 98 80 3e 64 32 2c 3e
       0.023079049 0.011047753 0.251165 0.16816097
0002a0 24 f1 94 3c 28 64 0d 3d 3f 1c 21 b8 c3 cf c4 bd
       0.018181391 0.034519345 -3.8411697e-05 -0.0960994
0002b0 94 8c 85 bd 5b fe 34 3d 4c 25 28 be b1 6d 7c b9
       -0.06520954 0.044187885 -0.16420478 -0.00024073456
0002c0 c5 77 83 3d ee ad b2 3d 45 f4 28 3e bd 06 ff 3d
       0.064193286 0.08724581 0.16499431 0.12452457
0002d0 22 45 44 bd a1 e0 c8 bc e3 a5 c1 3d b8 9b d2 bb
       -0.047917493 -0.024521174 0.094554685 -0.0064272545
0002e0 de 68 84 bc 34 a7 4f 3e 3b 0a 80 3c 1a ae 0b bd
       -0.016163286 0.20278627 0.015629878 -0.034101583
0002f0 2f 7f c6 3c c3 78 98 3d 76 fb a5 bc cf 59 4f bd
       0.024230568 0.074449085 -0.020261507 -0.050622758
000300 c1 4b 0a 3d 87 b7 e1 bb 96 be 2d 3e a1 d1 0b 3d
       0.03376365 -0.0068883332 0.16967234 0.034135465
000310 61 ae 05 3e 49 08 5d 3c be 61 3f bb dc f7 63 3c
       0.13054802 0.013490745 -0.0029202546 0.013914075
000320 b5 d0 0f be e2 ed 32 bd 5d 3a 0a 3d b6 60 b6 3d
       -0.14044459 -0.043683894 0.033747066 0.08905165
000330 1f e8 0c 3d a1 16 e1 bc fa 9c a0 3c ee dd b8 3d
       0.034401055 -0.02747661 0.019606102 0.09026705
000340 9c cc b5 3d 99 2b 40 3c 07 06 6d ba 8d 05 36 3e
       0.08876917 0.0117291445 -0.00090417307 0.17775555
000350 79 9d 9f b6 c7 d3 28 3d 0b 33 a4 3c 96 05 b2 3d
       -4.7569015e-06 0.04121759 0.02004387 0.08692472
000360 cd a4 fc 3c f3 a2 18 bd cd 0f 0e bd 91 3f 83 3d
       0.030840302 -0.037264775 -0.034683038 0.06408609
000370 69 d8 02 be ad 74 14 be 8a 96 b6 bd 32 2c 48 3d
       -0.12777866 -0.14497633 -0.08915432 0.048870273
000380 45 3e 9f 3d 51 ee 82 3d 37 bb 00 be df 89 91 3b
       0.07775549 0.063931115 -0.12571417 0.0044414843
000390 9c d0 3f bd a2 d9 42 be b4 14 99 3e 7a 11 c9 b9
       -0.046829805 -0.19028333 0.29898608 -0.0003835073
0003a0 a7 33 ea be 67 b5 0f be b3 04 3e bd 02 df 8b 3c
       -0.45742533 -0.14034043 -0.0463912 0.017074112
0003b0 45 09 34 3e 08 9a bd 3d 42 8f e1 3d 5e a4 80 be
       0.17581661 0.09257895 0.110136524 -0.25125402
0003c0 76 3d ed 3d de 78 8b 3d
       0.11583988 0.06810163

bias f4 [11]
000000 fe 17 fa bd 0a 4f 74 3e 1c 26 cf 3d bc b9 4a 3e
       -0.122116074 0.23858276 0.10114691 0.19797415
000010 94 9d b0 bd fa 13 e2 3d dc 8e d5 3b 6f 71 31 3d
       -0.08623806 0.110389665 0.0065172743 0.04332107
000020 82 c8 02 3e ab 55 17 3e 74 3a 87 3d
       0.127718 0.14778773 0.06602946

weight f4 [22, 22, 3, 3]
000000 e2 23 6f bd 62 6d 4c bd 2b 74 a9 3c 74 19 39 bd
       -0.05838383 -0.049909003 0.020685276 -0.04519029
000010 3b fd 18 be 6b 6c 7c bc 02 e1 63 bd 6d dd 12 be
       -0.1494035 -0.015406708 -0.055634506 -0.1434228
000020 26 4e 4d bd 79 0b 40 3d 74 a1 8d 3d 80 cf c8 3d
       -0.050123356 0.04688594 0.0691556 0.098052025
000030 6c de 9e bd f9 ae 2b 3d f7 9c ce 3d e2 b5 e2 bd
       -0.07757267 0.041914914 0.100885324 -0.11069848
000040 63 6b 20 3d 44 46 eb 3b 5f a4 be bd ef df 64 bd
       0.039164912 0.007180007 -0.09308695 -0.055877622
000050 fb 3d 0b bd 4b 26 00 be c2 c5 2b 3c 8a bd 5d 3c
       -0.033994656 -0.12514608 0.010484161 0.013533959
000060 31 11 69 3d 22 3e 44 bd 7a c4 88 bd fa 5b 02 3d
       0.05690116 -0.047910817 -0.066781 0.031825997
000070 0a 1e 28 3d e5 ba 8d bd cd 4c 89 3d 4b 73 ce 3d
       0.041044272 -0.06920413 0.06704102 0.10080584
000080 4b 93 17 be 7b bf 4b 3d 82 2a 8a 3c 59 79 7a 3d
       -0.14802282 0.049743157 0.016865972 0.061150882
000090 55 7a ab bc d8 7d 4e bd 4e 12 7d 3d 3c fc 6c 3c
       -0.020932356 -0.050412983 0.061785035 0.014464434
0000a0 68 7f eb 3b 5f f4 df 3c 0e fb d7 bd 39 72 bb bc
       0.007186819 0.027338205 -0.10545932 -0.022881614
0000b0 16 b2 d5 bc b9 34 95 3c d3 85 e4 38 f8 d3 5e bd
       -0.026085895 0.018213617 0.00010896814 -0.054401368
0000c0 14 8c 9d 3d cc d0 89 bd 0d 1b 5d bd ad 26 3c 3d
       0.076927334 -0.06729278 -0.053980876 0.04593532
0000d0 54 98 f6 bb 29 30 48 bd f8 64 58 3d 4f f6 7f 3c
       -0.007525483 -0.048874054 0.052830666 0.015622689
0000e0 05 70 c1 3c 83 2d 38 3c 2e 9c 21 3d 85 98 96 3d
       0.023612985 0.01124132 0.039455585 0.073533095
0000f0 f9 05 62 bb 42 a7 9d 3a d8 c9 c7 39 cb ea 28 ba
       -0.0034488423 0.0012027996 0.00038106623 -0.0006443678
000100 bf 46 d3 3b ea 86 4b 3d 44 55 20 3d 99 7a 2d 3c
       0.0064476426 0.04968921 0.039143816 0.010588312
000110 03 e0 69 3d d4 51 a1 3c 0e d2 71 bb f2 3e ca 3c
       0.0570984 0.019692339 -0.0036898884 0.024688218
000120 6a 72 38 bc bc 15 01 3d 6d 8c a7 3c 40 0c 0e bc
       -0.011257747 0.03151487 0.020452702 -0.008669913
000130 34 c7 72 bc 46 01 ec 3b 52 6e 1e bd b8 49 45 bd
       -0.014818002 0.0072023002 -0.03867943 -0.048166007
000140 15 5e 7a bc ad 2f b8 3d 38 99 19 3e 99 b8 93 3c
       -0.01528122 0.089934684 0.14999855 0.018032359
000150 09 e7 2a 3e 8b 04 ea 3d b9 36 5a 3d b1 0d 30 3e
       0.16689695 0.11426648 0.053274844 0.17192723
000160 7f 7d ea bd ed 3e 9d bd 83 76 b8 bc 68 ff 6d 3d
       -0.11449718 -0.07678018 -0.022517448 0.058104903
000170 d4 77 70 bc 37 3f 4c bc 8f ef 96 3d c1 23 2d 3d
       -0.014677007 -0.0124662435 0.07369911 0.042270426
000180 15 ce d2 3c dd 02 17 3d 77 62 ef 3c ba 6a 0e 3c
       0.025733033 0.036867965 0.029221756 0.008692438
000190 0e 7f 7d 3c 08 f4 71 bb d5 df d0 3c 1b 69 71 3c
       0.015472187 -0.0036919136 0.025497356 0.014734532
0001a0 c1 44 c9 3c 3c d9 ed bb c7 b4 9d bc 1c 64 9b 3a
       0.024568917 -0.0072585624 -0.01925124 0.0011855396
0001b0 42 21 ef bd a4 00 82 3d 2f 3c 2d bd 91 88 ff 3b
       -0.11676265 0.063477784 -0.042293724 0.0077982624
0001c0 fb a6 02 3e c4 fa 2e 3d 5b f0 30 3c f9 99 2a 3e
       0.1275901 0.042719617 0.010799493 0.16660298
0001d0 d6 67 91 bd 34 e4 8c 3d a1 fd 2a 3d 7f 12 3b 3e
       -0.07099883 0.06879464 0.041745786 0.18268774
0001e0 a0 ce 22 3e ee 46 0c be f0 63 ad bd 2f 12 df 3d
       0.15899134 -0.13698933 -0.08466327 0.1089214
0001f0 92 75 d6 bc ca bc b9 3d cb 1d 91 3c 79 87 79 3c
       -0.026179109 0.09069212 0.017714402 0.015230053
000200 89 4a c5 bb ec 2b 91 3c 3c d6 82 3b 1d 45 81 3c
       -0.006020848 0.017721139 0.003992824 0.015780026
000210 3f 5f d6 bb 62 02 7d bc 4d d8 82 bc 8b e0 6f 3c
       -0.006542116 -0.015442463 -0.01597228 0.014640938
000220 00 78 3b 3d 37 d5 17 3c af a4 8e 3c 4f 4e 67 3c
       0.045768738 0.009267143 0.017412512 0.014117791
000230 79 91 9d 3b 8d b9 56 bc a4 a4 00 bd 1a 62 11 3c
       0.0048086015 -0.013105762 -0.031407014 0.008873487
000240 67 84 57 3d 29 30 ca 3c 29 e9 2b bd 4b 29 14 bc
       0.052616503 0.024681168 -0.041970406 -0.009043048
000250 83 a1 ef bc 10 d3 15 bd 8c ce 5a bd 54 38 bb bd
       -0.02925182 -0.036578238 -0.053419635 -0.09141603
000260 4b a3 80 bd 93 92 01 3d 45 29 45 3c 93 76 80 3c
       -0.06281146 0.031633925 0.012033765 0.01568154
000270 47 97 fc 3c 1a f7 1a 3c 76 1f 8f 3b c4 5e 70 bd
       0.030833853 0.009458328 0.004367764 -0.058684126
000280 99 bd a5 bd be 30 54 bd dd 41 e1 bd be ba 65 3c
       -0.080928035 -0.051804297 -0.109988905 0.014021574
000290 ba d6 3e 3e a4 c2 9f 3c 48 cf 62 bd 5d 91 74 3e
       0.18636599 0.019501992 -0.05537346 0.23883577
0002a0 45 ed 2c 3d 72 b8 86 3d eb 48 30 3d fb ea 63 3d
       0.042218465 0.06578149 0.04303829 0.055644017
0002b0 ab 16 4d bc d9 87 ea 3c 94 dd 1c 3d c7 4d 9e bc
       -0.0125176115 0.02862923 0.03829725 -0.019324197
0002c0 10 fe 0f bc ab b6 cc bc 2b 3c 18 3d 69 08 d6 3c
       -0.008788601 -0.024989447 0.037166756 0.026127057
0002d0 14 ce e1 bc a9 56 c1 bc 18 d0 14 bc b0 9d 84 bc
       -0.027564086 -0.023600893 -0.009082817 -0.016188473
0002e0 7c df 8e 3b 52 24 1b 3d 6d e5 96 3d 09 63 5a 3c
       0.0043601375 0.037876435 0.07367978 0.013329276
0002f0 d2 24 db 3c be 40 b2 3d fd 07 c5 bd 59 4a db bc
       0.026750956 0.08703755 -0.09620664 -0.02676885
000300 05 66 15 be 3f da cf 3d 3e 93 08 be 0e 81 81 3d
       -0.14589699 0.10149049 -0.13337418 0.06323443
000310 78 3d cc 3c 43 dc e0 bd cb d5 72 3e bd d9 54 3e
       0.024931654 -0.109795116 0.23714368 0.20786186
000320 f7 28 bd bd ab 86 c4 3d 81 2f ba 3c 38 56 ec bd
       -0.09236329 0.095959984 0.02272773 -0.115398824
000330 b0 e6 31 3d dc ff 8b 3c 53 7b 28 3d 52 ed b7 3d
       0.04343289 0.017089777 0.041133236 0.08980812
000340 78 e2 ff bc c7 bf 43 be 1b de f6 3c 74 02 02 3e
       -0.031235918 -0.19116126 0.030135205 0.12696248
000350 cd 04 a7 be 3c ea 94 3d b1 30 93 be af 9e c6 bd
       -0.3262085 0.07271239 -0.28748086 -0.09698235
000360 ad 15 15 bd 66 20 2b bc 2d 0a f0 3c 5d 85 ce 3c
       -0.036397625 -0.010444736 0.029301727 0.025210077
000370 b7 f8 3e bc 0f b6 90 bd d5 ba 3f 3d 2f 14 97 bc
       -0.011655978 -0.07065975 0.046809036 -0.018442241
000380 4d 5d 3e 3d 69 53 4e 3d 86 8d 1a 3d fb fc 05 bd
       0.046475697 0.050372515 0.037732624 -0.032711964
000390 ce 65 8a 3d 88 38 73 be ba 0b 28 3e 25 ff 5f 3d
       0.06757699 -0.23752034 0.16410723 0.054686684
0003a0 3f 45 06 bd a0 13 ad bd 84 fd 6a bc 19 6b 33 bc
       -0.032780882 -0.08451009 -0.014342669 -0.010950827
0003b0 d8 8f 5e bd c7 39 1d 3c 51 88 73 3d 72 1f 37 3d
       -0.0543364 0.009596295 0.059456173 0.044707723
0003c0 98 42 c0 3c d8 a7 d3 3c 47 fc 81 bd 7b f5 28 3d
       0.023469254 0.02583687 -0.06346946 0.041249733
0003d0 bc 24 c4 3d 43 b3 14 bc a5 ec 0c 3d 0e ea 9d bb
       0.09577319 -0.009075942 0.03440537 -0.0048191613
0003e0 bc 37 bd bb c3 a6 cd bb 49 25 82 3c 9f 56 27 bd
       -0.0057744663 -0.006275983 0.01588692 -0.040854093
0003f0 b8 16 90 3c 46 15 86 3c d9 5e 04 bc 8d 79 b1 3d
       0.017588958 0.016367566 -0.008079254 0.08665762

bias f4 [22]
000000 83 d3 21 3f 31 be 2f bc be 03 7c bd 51 8e 7c 3d
       0.63213366 -0.0107264975 -0.061527006 0.06165916
000010 fa e6 31 3e a9 ee 17 be 5e 0f 0c be 69 a9 91 3e
       0.17373267 -0.14837135 -0.13677737 0.28449562
000020 e5 e5 74 3e 4b 64 7e 3e dd 1c 8f 3d 5d 2d c6 3e
       0.23915823 0.24842946 0.06987927 0.38706484
000030 12 71 cb 3e 1d 64 79 3e 00 b1 0b 3f 96 59 00 be
       0.39734703 0.24354596 0.54566956 -0.12534174
000040 7c 92 33 be 97 b1 2d be 03 50 06 3e d6 97 98 be
       -0.17536348 -0.16962276 0.1311646 -0.29803342
000050 a3 39 ec be 0b d8 07 3e
       -0.46137723 0.13266008

weight f4 [11, 22, 1, 1]
000000 48 e4 7f be 8b 67 7f bd 9a d9 2a be 00 10 37 be
       -0.24989426 -0.062354606 -0.16684571 -0.17877197
000010 8a ba 84 3d af 1d 45 be b6 14 4b 3e 6f 8c 36 bd
       0.06480892 -0.19249605 0.1983212 -0.04456752
000020 55 88 98 3b b3 20 eb bd 18 5b 05 39 7f 24 67 bd
       0.004654924 -0.11480846 0.00012717803 -0.05643129
000030 9a 5d 45 be 8c 84 a9 3d 1e 02 4b bd 12 65 58 bd
       -0.19273987 0.082772344 -0.049562566 -0.052830763
000040 72 72 8d 3d e3 a4 87 3c d4 33 f7 3d da fe 6f be
       0.06906594 0.016558116 0.12070432 -0.23437062
000050 da 68 80 bd d8 41 a9 bd 8c fe a8 bd 60 a2 02 3c
       -0.06269999 -0.08264512 -0.08251676 0.0079732835
000060 c0 82 a2 bd 74 c8 fb bc 02 dd 92 3c 27 cf e3 3d
       -0.07935095 -0.030735232 0.01792765 0.111234955
000070 84 be 1e 3d 14 9b b9 bd 71 1e 1f bd d8 95 b7 3b
       0.03875591 -0.09062782 -0.03884739 0.0056025796
000080 00 b9 62 bd ca 34 20 bc 52 1b 3b 3d c9 29 ba bd
       -0.05535221 -0.009778211 0.04568035 -0.09090001
000090 2b 54 1d 3e e2 b5 f6 bc 0c 2d 22 bd a9 9e b3 3d
       0.15364139 -0.030116025 -0.03959374 0.087704964
0000a0 6b 59 46 bd 60 22 40 bc 24 f1 35 3c da f2 bd ba
       -0.04842512 -0.011726946 0.011104856 -0.0014491931
0000b0 b7 98 05 3d 85 03 b7 3b 58 a7 26 bc 1b 36 95 3d
       0.032616343 0.0055851364 -0.010171734 0.072857104
0000c0 be 88 e3 3c b6 84 0e 3e e6 5d 5b 3d e7 90 8e 3d
       0.027775165 0.13917813 0.053556345 0.06961232
0000d0 8a de 80 3d 58 f4 49 be 28 50 a5 3c 62 63 cf 3c
       0.06292446 -0.19722116 0.020179823 0.025315944
0000e0 34 8a 2e 3d 36 a3 04 be 83 89 aa 3d ae c7 07 bd
       0.04261227 -0.12952885 0.083270095 -0.033149414
0000f0 84 6b 32 3d 99 ce b1 3c ae c1 8d 3c cf 60 77 be
       0.043559566 0.021704959 0.017304268 -0.24158023
000100 61 21 fc 3d 01 46 bc 3c 71 98 d8 bd 7c 7f 89 bd
       0.12311054 0.0229826 -0.10575951 -0.06713769
000110 5b 6b 8e 3d 08 a1 c3 bc 15 1b eb bc 99 e1 a2 bd
       0.0695407 -0.023880497 -0.028699437 -0.079531856
000120 5a f9 b6 bc ac 90 5d 3c f3 da 6b be 14 1b 4f be
       -0.022335697 0.013523262 -0.23032741 -0.20225173
000130 20 ac 41 3d ed 0b 83 bc 8d a9 c5 bd 37 7e 47 bd
       0.04728329 -0.015996898 -0.0965148 -0.048704352
000140 25 e4 90 bd 5b 98 73 be 50 bf 8d 3e 91 2a cb be
       -0.07074765 -0.23788588 0.27685022 -0.39680913
000150 57 b7 b2 3d da a8 f5 3d c0 5e 64 3e a0 a0 1c bc
       0.087263756 0.119950965 0.2230177 -0.00955978
000160 a9 27 03 3e 0e 7c 58 3d 9d c3 4a 3d 06 a2 94 bb
       0.12808098 0.052852683 0.049502958 -0.0045359163
000170 69 7f 29 3d b7 9c 12 3e a5 eb de 3d 8c f7 98 3d
       0.041381273 0.14317594 0.108847894 0.07469091
000180 09 c3 53 3d 06 4c 24 bd f3 92 9a bc 89 a9 f0 bc
       0.051699672 -0.040111564 -0.018868899 -0.029377716
000190 b4 49 78 bd 1e bc 7e bc a1 1b 00 bd 7d b4 8c 3d
       -0.060617164 -0.01554778 -0.03127635 0.06870363
0001a0 18 ea 2f 3c f9 71 fb 3c 1d ec 41 3e 37 4d e7 3e
       0.010736965 0.030693995 0.18937726 0.45176098
0001b0 e5 c8 5f 3e 87 12 e2 37 0a ef 3d 3d 91 43 3d 3c
       0.21853979 2.6949927e-05 0.046370544 0.011551754
0001c0 c8 8a 71 3c 77 75 95 bd 3e ef 5d 3d df e3 63 bd
       0.014742561 -0.07297795 0.054183237 -0.055637237
0001d0 e1 ab 4e bc 37 63 a9 3d 5d fb 83 3d b2 da a9 3e
       -0.012614221 0.08270877 0.06444428 0.33174664
0001e0 41 ff d6 bd d0 9d 63 3d 19 2a 13 bd 0e 09 eb 3c
       -0.104979046 0.055570424 -0.03592882 0.028690841
0001f0 1e 52 d9 3c 1d 48 50 3d 0b fe e3 3c 97 cd a6 bd
       0.026528414 0.050850023 0.027831098 -0.08144682
000200 f3 fa 2c bd 81 2f e3 bc 63 60 12 be 9c 9e 86 bd
       -0.04223151 -0.027732613 -0.14294581 -0.06573221
000210 8e dd 61 3d 49 b3 03 bc 66 1c d1 bd 00 5d d4 bc
       0.05514293 -0.00803835 -0.10210495 -0.025923252
000220 a5 b2 19 3d 39 6c 2a 3e 0c 55 69 bd b9 ed e7 3c
       0.037523884 0.16642846 -0.056965873 0.028311597
000230 74 a0 41 bd 2e 83 17 be fd 35 25 3e 6a ad df 3d
       -0.04727216 -0.14796135 0.16133876 0.10921748
000240 9c 0c d2 3d b7 c2 86 bc df a2 82 bc 1d a8 60 3e
       0.10256311 -0.01645027 -0.015946804 0.2193913
000250 b4 4b 59 3b 23 2d 4e 3c 5d 60 7e bb c8 08 96 bd
       0.0033156695 0.012584004 -0.0038814761 -0.07325894
000260 f3 08 09 be ca f2 d0 bd cb 48 30 3d 8f a9 ba b9
       -0.1338232 -0.10202558 0.04303817 -0.00035603016
000270 e3 5f e5 3d f5 88 4f 3d 43 95 79 3d 15 f3 b5 3d
       0.111999296 0.05066772 0.060933363 0.08884255
000280 b9 9b 9d bd 5e 64 4d 3c 63 be 28 3d eb 4d ce 39
       -0.07695717 0.012536136 0.041197192 0.00039349435
000290 a5 9a 1d 3c 41 8e 6a 3d 96 ad c3 bc 6f 08 7b bc
       0.00961939 0.05726457 -0.023886483 -0.015321835
0002a0 5e e4 96 b9 b6 bf 42 3d 40 4c e6 bd e3 0c 9c 3d
       -0.00028780376 0.04754611 -0.11245012 0.076196454
0002b0 f3 b9 fc bd 85 62 a6 3b 55 8e 59 be 77 bb 8a 3d
       -0.123401545 0.0050776624 -0.21245702 0.06774037
0002c0 95 46 a7 3c 77 26 8c bb ef a7 d5 bd a5 c6 16 bd
       0.020419398 -0.0042770463 -0.104324214 -0.036810536
0002d0 42 1c e6 bc 39 09 62 3e eb 5b f3 bc 14 b0 af 3d
       -0.028089646 0.2207383 -0.029706916 0.08578506
0002e0 23 c5 89 be 6f 13 fc 3e 71 7e de 3d 16 e4 65 3d
       -0.26908216 0.49233577 0.108639605 0.056125723
0002f0 dc 9a 0b be 3b df 07 bd 29 51 41 bd 78 f9 96 bd
       -0.13633293 -0.033171874 -0.04719654 -0.07371801
000300 c3 d5 1d be 97 92 7d bd f0 17 56 3e 69 90 15 be
       -0.15413575 -0.061907377 0.20907569 -0.1460587
000310 fb a1 0c bf 06 00 c1 bc 83 c1 88 bd 2f 97 ba bc
       -0.5493466 -0.023559581 -0.066775344 -0.022777168
000320 ad e9 ef bd 44 f9 cb bc 1e 79 b1 3d b0 ee 14 3d
       -0.11714492 -0.024899133 0.086656794 0.036360443
000330 c7 46 c9 bc 1e bb a9 3d b7 9b 8f 3b f3 0c 25 3e
       -0.024569882 0.08287643 0.0043825763 0.16118221
000340 c2 be c5 bd 4f c1 23 3d 80 11 92 bd 5b 70 24 3c
       -0.09655525 0.039979275 -0.07132244 0.010036553
000350 b4 89 6b bd ac 1a aa 3b 79 d0 9d 3d 71 8d c7 3d
       -0.05750437 0.005191168 0.07705779 0.09743775
000360 c0 a7 e3 bc e0 34 23 bd c1 28 0a be db 5a fb bd
       -0.02778995 -0.039845347 -0.13492109 -0.12273189
000370 7a 61 01 3d 59 d1 81 bd f9 00 8d ba e5 c2 d7 3c
       0.0315871 -0.06338758 -0.0010757736 0.02633805
000380 87 69 16 bc 3e 60 8e bd 51 29 c3 bd d7 b1 bf 3d
       -0.009180433 -0.069519505 -0.09529365 0.09360092
000390 cc 54 98 3d 60 3d 55 3e 27 e1 9c 3c 8c 4b c7 bb
       0.07438049 0.20824194 0.01915033 -0.006082004
0003a0 a2 16 b9 3c e1 a2 a4 3c 00 ae 42 3c 35 61 23 be
       0.0225938 0.020097198 0.011882305 -0.1595505
0003b0 fb aa 24 bd f9 6b 8f 3d fe 5b fb 3d 3d 53 9c 3c
       -0.040202122 0.07003016 0.122734055 0.01908266
0003c0 e7 87 4e be 7f 7f 14 3d
       -0.2016903 0.036254402

bias f4 [11]
000000 e0 6b b0 bd 10 35 ee 3e 74 00 65 3e 01 b4 5a 3e
       -0.086143255 0.46524858 0.22363454 0.21357729
000010 bf 89 ca be b0 c6 cb 3d 03 33 ce 3d d3 d8 d3 3d
       -0.39558217 0.09950006 0.100683235 0.1034409
000020 64 8c e3 3e 1d a2 7f 3f 99 09 95 3e
       0.44443047 0.9985674 0.29108885
