demo/PRFDN_x3.pth (torch, 298005 bytes, 102 tensors)

weight f4 [25, 6, 3, 3]
0	0xbe161548	-0.14656556
1	0x3c37fd2b	0.011229794
2	0xbcc682df	-0.024232326
3	0x3d94e0e5	0.07269458
4	0xbe3898c1	-0.18027021
5	0xbe26558e	-0.16243574
6	0x3db8cbde	0.090232596
7	0xbd968a03	-0.073505424
8	0x3da42e45	0.08016638
9	0x3d6c3550	0.05766803
10	0xbe32ed12	-0.17473248
11	0x3d5751a7	0.052568104
12	0x3c45cc2f	0.012072607
13	0xbe50b6ec	-0.20382279
14	0xbdb15107	-0.08658033
15	0x3d545202	0.05183602
16	0x3cbda461	0.023149671
17	0xbdb3d6d0	-0.087812066
18	0xbda5bf7d	-0.08093164
19	0x3e38dfda	0.18054143
20	0xbd059c84	-0.032619968
21	0x3e06925f	0.13141774
22	0x3df16e1a	0.11788578
23	0xbde242c6	-0.11047892
24	0xbe319e89	-0.17345633
25	0x3e4a796c	0.19772881
26	0xbbc95f4b	-0.006145393
27	0x3b2d80e9	0.0026474542
28	0x3d58483d	0.052803267
29	0xbdce3cea	-0.10070212
30	0xbdec2191	-0.1152984
31	0xbd91185f	-0.070847265
32	0x3d9eb5e0	0.07749534
33	0x3d18bcc6	0.037289403
34	0xbde7dd04	-0.11321452
35	0x3ce6c524	0.028170176
36	0xbd0b795a	-0.034051277
37	0xbdfac138	-0.12243885
38	0xbe00761b	-0.12545054
39	0xbe1a04c4	-0.1504088
40	0xbd2f88e3	-0.042855155
41	0x3dfda7ef	0.123855464
42	0xbdc81a9f	-0.097707026
43	0x3c2c4422	0.010514291
44	0x3b7c65eb	0.0038512896
45	0x3e006840	0.12539768
46	0xbdcc5f62	-0.0997913
47	0x3d36a0eb	0.044587057
48	0x3da0444e	0.07825528
49	0x3d9e40bf	0.07727193
50	0x3b87d1a3	0.0041448637
51	0x3dbcc2df	0.09216856
52	0xbd587053	-0.052841496
53	0x3dbd15d3	0.09232678
54	0x3d86147b	0.06546875
55	0x3d290003	0.041259777
56	0x3d81f716	0.06345956
57	0x3df2fc58	0.11864537
58	0x3e8f4653	0.2798334
59	0xbdbca0ff	-0.09210395
60	0xbc8d9c32	-0.017286394
61	0x3df31a4c	0.1187025
62	0x3e1a59f1	0.15073372
63	0x3e0a196c	0.1348626
64	0xbdf777b1	-0.12083376
65	0xbe156fcc	-0.14593428
66	0xbddfab94	-0.10921398
67	0x3d234587	0.03986123
68	0x3e3b8df3	0.18315868
69	0xbd9812fb	-0.07425495
70	0x3dbf1348	0.093298495
71	0xbe04304c	-0.12909049
72	0xbe3ffaee	-0.18748066
73	0xbd69736c	-0.05699484
74	0x3d97b317	0.074072056
75	0x3e371dda	0.17882481
76	0xbdedc531	-0.11609877
77	0x3cbdb1c7	0.02315606
78	0x3e225f28	0.15856612
79	0x3dff303f	0.12460374
80	0x3dadd1ff	0.08487319
81	0xbd95697e	-0.07295512
82	0xbd34c228	-0.044130474
83	0x3dfe39d1	0.12413371
84	0xbdc5d62d	-0.096599914
85	0x3cecde22	0.028914515
86	0xbd6f8744	-0.05847861
87	0xbcd3665a	-0.025805641
88	0x3d80bb5f	0.06285738
89	0xbcca935f	-0.024728475
90	0x3d5554fb	0.052082997
91	0xbba3ceb7	-0.0049990076
92	0xbd4d9eed	-0.05020039
93	0x3d200e1f	0.039075967
94	0xbc16df18	-0.009208463
95	0x3dcde685	0.10053734
96	0xbd9458b8	-0.07243484
97	0xbb98583a	-0.0046491893
98	0x3d6f9033	0.05848713
99	0x3ce06101	0.027390005
100	0xbd8eeed8	-0.069791496
101	0xbd3307f5	-0.04370876
102	0xbcae2fa0	-0.021262944
103	0x3de2911d	0.110628344
104	0xbdfa5625	-0.12223462
105	0x3c07f621	0.008298428
106	0x3d96d0bc	0.07364032
107	0xbdea2f2c	-0.114347786
108	0x3e15f655	0.1464475
109	0xbde819e6	-0.11333065
110	0xbd756780	-0.05991316
111	0x3e279da5	0.1636873
112	0xbe25f254	-0.16205722
113	0x3e1ef0fd	0.15521617
114	0xbddf05a5	-0.108897485
115	0xbe065d45	-0.13121517
116	0x3d99b6f6	0.075056
117	0xbdd255ce	-0.10270272
118	0xbc2a4ca0	-0.010394245
119	0x3e1502e0	0.14551878
120	0x3e3cd7be	0.18441674
121	0x3e969f7d	0.29418555
122	0xbd053e55	-0.032530148
123	0xbdd8c74f	-0.1058489
124	0x3e649d22	0.22325566
125	0xbd7a6dc9	-0.061139856
126	0xbdc99dbc	-0.098445386
127	0x3d62c686	0.055365108
128	0xbde79cfb	-0.113092385
129	0x3e05a2df	0.13050412
130	0x3e4fb6d9	0.20284595
131	0xbdfed19f	-0.12442326
132	0xbe138153	-0.14404802
133	0xbb5e5c66	-0.0033929585
134	0x3dafad2e	0.08577953
135	0xbdabdcde	-0.083917364
136	0x3cad0dd8	0.021124765
137	0xbd4f831d	-0.05066215
138	0x3ca3505a	0.019935776
139	0xbdb07c7a	-0.08617492
140	0xbe030645	-0.1279536
141	0xbb1bd604	-0.0023778686
142	0xbd9adb69	-0.075613804
143	0x3dcc43ac	0.09973845
144	0xbd68c8eb	-0.056832235
145	0x3b84e176	0.0040551974
146	0xbdc61722	-0.09672381
147	0x3e03ee39	0.12883843
148	0x3e387af8	0.18015659
149	0x3da70950	0.08156073
150	0xbd655cf0	-0.055996835
151	0x39abf0fe	0.00032795215
152	0xbd5b8482	-0.053593166
153	0xbd5bd2ce	-0.053667836
154	0x3db60138	0.08886951
155	0xbdeb885b	-0.11500617
156	0xbd7acefb	-0.06123255
157	0x3df4d6db	0.11955043
158	0xbae78175	-0.0017662483
159	0x3d5a6c2b	0.053325813
160	0xbdb5e378	-0.08881277
161	0xbd021d1c	-0.031766042
162	0xb9af6ee8	-0.00033461233
163	0xbd6f3856	-0.058403336
164	0x3c482405	0.012215619
165	0xbe2f3cf0	-0.1711309
166	0xbe17f542	-0.14839652
167	0xbe189c3d	-0.1490335
168	0x3e272340	0.1632204
169	0x3e36513e	0.17804429
170	0xbda059cc	-0.078296274
171	0x3cca4431	0.02469072
172	0x3dbdfe09	0.09276969
173	0x3cdf6bc1	0.02727306
174	0xbd852a0a	-0.06502159
175	0x3e3935f8	0.18086994
176	0x3e064658	0.13112772
177	0xbbdbff02	-0.006713749
178	0xbd691d3b	-0.056912642
179	0x3e3ec76a	0.18630758
180	0x3e0d62fd	0.13807292
181	0xbddc86e7	-0.10767918
182	0x3e30902e	0.172425
183	0x3d5e8d01	0.05433369
184	0xbd7c0b30	-0.061534107
185	0x3e0b5ad7	0.13608871
186	0xbe244bea	-0.16044584
187	0x3e58b89e	0.21164176
188	0xbdf104e2	-0.117685094
189	0xbdd9287a	-0.106034234
190	0x3d5bf9e6	0.05370512
191	0xbccb30b3	-0.024803495
192	0x3d8243f3	0.063606165
193	0xbdbfb597	-0.093608074
194	0xbd949f06	-0.07256894
195	0xbd902282	-0.07037832
196	0xbccf35c4	-0.025294192
197	0xbd9d7cb0	-0.07689798
198	0x3daa9d20	0.083307505
199	0xbd49aaf6	-0.049235307
200	0xbdd311c4	-0.10306123
201	0xbde73de8	-0.112911046
202	0x3e002d52	0.12517288
203	0xbe099caa	-0.13438669
204	0x3ddcfa3e	0.107899174
205	0x3dce81db	0.10083362
206	0x3cb3176e	0.021861758
207	0x3caf29e6	0.021382283
208	0xbd977acc	-0.073964685
209	0xbcaca926	-0.02107675
210	0x3e01c85a	0.12674084
211	0x3da07e3b	0.078365766
212	0x3dea3fd5	0.11437956
213	0x3d381c18	0.044948667
214	0x3d2c71be	0.04210066
215	0xbda6aedc	-0.081388205
216	0xbe0b6e2d	-0.13616247
217	0x3e6e0084	0.23242384
218	0x3dd37303	0.10324671
219	0x3df4262f	0.119213454
220	0x3dbfa8f1	0.09358395
221	0xbd374661	-0.044744853
222	0x3e073449	0.13203539
223	0xbe247c75	-0.16063102
224	0x3ca076f8	0.019587979
225	0x3dd5a87d	0.10432527
226	0x3e1fbc70	0.15599227
227	0xbdc7373f	-0.09727334
228	0xbdd6fd95	-0.10497586
229	0x3e0ff8aa	0.14059702
230	0xbe1bd118	-0.15216482
231	0xbe00b815	-0.12570222
232	0xbe41a9b6	-0.18912396
233	0xbd86f5ce	-0.06589852
234	0xbcc61a74	-0.024182536
235	0xbdf5174f	-0.119673364
236	0xbd733dc3	-0.059385072
237	0xbe21f1e6	-0.15814933
238	0x3e249cb5	0.16075404
239	0xbcca47fd	-0.02469253
240	0xbdde58f0	-0.10856807
241	0x3d7e293a	0.062051035
242	0xbde96338	-0.113958776
243	0xbc10d971	-0.008840905
244	0x3dd166dd	0.10224698
245	0x3d8772ef	0.06613719
246	0xbc1c4d3b	-0.009539898
247	0x3d246fcf	0.04014569
248	0x3dc349f0	0.09535587
249	0xbd80d7f8	-0.06291193
250	0x3da6fd5b	0.081537925
251	0x3d517517	0.051137056
252	0x3ddc20b4	0.10748425
253	0x3e014156	0.1262258
254	0x3df68424	0.120369226
255	0x3d391f27	0.045195725

bias f4 [25]
0	0xbd04fba8	-0.03246656
1	0x3ea02dba	0.31284887
2	0x3e30aeee	0.1725423
3	0x3bb9cd8f	0.0056702564
4	0x3e1ca9a2	0.15299085
5	0x3cef5862	0.029216949
6	0x3e0a3119	0.13495292
7	0xbb0c8b17	-0.0021445209
8	0x3e441337	0.19147955
9	0x3bb282ae	0.005447707
10	0x3dcd72ae	0.10031639
11	0x3d4e6e75	0.05039831
12	0x3f03ee10	0.5153513
13	0x3eae97db	0.34100232
14	0x3f9bbc6f	1.216688
15	0x3ea68c7c	0.32529056
16	0x3a9f9716	0.0012175764
17	0x3dd3b2ec	0.10336861
18	0xbdb3ce3f	-0.08779573
19	0x3ef83dbe	0.48484606
20	0x3e239fd4	0.15978938
21	0xbdd93237	-0.10605281
22	0xbe28c9cb	-0.16483228
23	0x3f4e51f4	0.805938
24	0xbf14c5cd	-0.5811432

weight f4 [12, 24, 1, 1]
0	0xbd297c14	-0.041378096
1	0x3cb6d3a3	0.022317713
2	0xbca9f05e	-0.020744499
3	0xbd1dcaef	-0.03852361
4	0x3cb4b7a4	0.022060223
5	0x3e2285ff	0.15871428
6	0xbd3797b7	-0.04482242
7	0xbd46798d	-0.048455764
8	0x3c4f8501	0.012665988
9	0xbb9db94a	-0.004813348
10	0xbc9c8e64	-0.019110866
11	0xbe5fef86	-0.21868715
12	0xbd6102b8	-0.054934233
13	0xbdc89469	-0.09793932
14	0x3d318f55	0.043349583
15	0xbdbab6a0	-0.09116864
16	0xbc071e7a	-0.008247012
17	0x3d1f05e9	0.038823996
18	0xbd391cd3	-0.045193505
19	0xbc7d6d47	-0.015467948
20	0xbd66c78b	-0.056342643
21	0xbd14cc20	-0.03632748
22	0xbdb6656f	-0.08906066
23	0xbb9b38ac	-0.0047369804
24	0x3f8622d9	1.0479385
25	0xbd122af5	-0.0356855
26	0xbc3490bf	-0.011020838
27	0x3be2c149	0.006920014
28	0xbbb77201	-0.005598307
29	0xbdb62eec	-0.088956684
30	0xbcd2fb5b	-0.025754621
31	0x3d2ee2f3	0.042696904
32	0xbc93c995	-0.018040458
33	0x3b82407d	0.0039749728
34	0x3cbdd6e3	0.023173755
35	0x3c822850	0.015888363
36	0x3d956714	0.07295051
37	0x3e1086c4	0.14113909
38	0xbe35e8af	-0.17764543
39	0xbdb20c65	-0.0869377
40	0x3cd9097c	0.02649378
41	0xbde7e7e6	-0.11323528
42	0x3d4bd288	0.049761325
43	0xbacf791d	-0.0015828941
44	0x3db1deae	0.08685051
45	0xbca8dd50	-0.020613343
46	0xbc1731a0	-0.00922814
47	0xbd882c02	-0.06649019
48	0xbdbbddba	-0.0917315
49	0x3f82b3d8	1.0211134
50	0xbda1977f	-0.07890224
51	0xbcbcd747	-0.023051871
52	0x3d9de223	0.07709148
53	0x3e82c4e4	0.2554084
54	0x3d82ddec	0.063899845
55	0xbd184466	-0.037174605
56	0xbcb3b661	-0.021937551
57	0xbb116ccc	-0.0022190092
58	0xbd0761e0	-0.033052325
59	0xbc3e2636	-0.01160579
60	0xbe0d128d	-0.13776608
61	0xbe02d4b9	-0.1277646
62	0x3e95d814	0.29266417
63	0x3dd490f5	0.10379211
64	0xbd37e546	-0.044896387
65	0x3e29f7de	0.1659846
66	0xbd8a6331	-0.067572005
67	0xbc8f6d84	-0.017508276
68	0xbe390f24	-0.18072182
69	0x3d6f7fba	0.05847142
70	0xbc2d3689	-0.010572084
71	0x3e015e17	0.12633549
72	0xbc1a8c32	-0.009432839
73	0x3caa5296	0.020791333
74	0x3f923e0e	1.1425188
75	0x3da72bc0	0.081626415
76	0x3ba39a2a	0.004992743
77	0xbe9a2748	-0.30108094
78	0x3d3f75f1	0.046743337
79	0xbd05717d	-0.032578934
80	0x3c5208c1	0.01281947
81	0xbcce59cf	-0.025189308
82	0x3d657817	0.05602273
83	0x3e159b8f	0.14610122
84	0xbc2223d2	-0.009896236
85	0x3d367c60	0.044552207
86	0x3d70b51f	0.05876648
87	0x3d9e6d9e	0.077357516
88	0xbc82fe31	-0.015990349
89	0x3cca7c63	0.024717515
90	0xbcc35e06	-0.023848545
91	0x3d213875	0.039360482
92	0xbdbc0226	-0.09180097
93	0xbcbdd149	-0.023171084
94	0x3df1009f	0.117676966
95	0xbb95afa9	-0.0045680595
96	0xbd0aef80	-0.03391981
97	0x3a99ebfd	0.0011743304
98	0x3e198020	0.14990282
99	0x3f7f7a45	0.99795943
100	0x3d4e7804	0.050407425
101	0x3d15bc19	0.036556337
102	0x3b931dac	0.004489621
103	0xbd38410e	-0.044983916
104	0xba4ff303	-0.0007932635
105	0xbc672034	-0.014106799
106	0x3ccc930e	0.024972465
107	0xbd8f8d61	-0.07009388
108	0xbc1aede6	-0.0094561335
109	0xbd4e8f0c	-0.05042939
110	0x3e1fc3f4	0.15602094
111	0xbdef0290	-0.11670411
112	0xbadf6337	-0.0017043118
113	0xbd588ca8	-0.052868515
114	0x3bca9acd	0.0061830045
115	0xbc22d549	-0.009938546
116	0x3cfb5513	0.030680215
117	0xbcc5dace	-0.024152186
118	0xbdc26d25	-0.09493474
119	0xbd26a09b	-0.04068051
120	0x3cd64e67	0.026160432
121	0xbc57ec47	-0.0131788915
122	0xbde087d2	-0.10963406
123	0xbd17050f	-0.03687006
124	0xbdbb0f53	-0.09133782
125	0x3f6fc0e3	0.93653697
126	0xbc99244e	-0.01869407
127	0x3de34775	0.11097614
128	0x3d437c11	0.04772574
129	0x3cd9b26b	0.026574334
130	0xbd69b8f4	-0.05706115
131	0x3db15ce2	0.08660294
132	0xbc739228	-0.014866389
133	0xbbba6906	-0.0056887893
134	0x3e1ec8e8	0.15506327
135	0x3d20c09d	0.03924619
136	0x3cd30dfa	0.0257635
137	0x3d1a5ec8	0.037688047
138	0xbcabd57b	-0.020975819
139	0xbd8e5ec8	-0.06951672
140	0xbd8682bf	-0.065679066
141	0x3cd4770c	0.025935672
142	0x3ca6b97b	0.020352116
143	0x3d199f5b	0.03750549
144	0xbd9af85e	-0.075669035
145	0x3d21bcb3	0.0394866
146	0xbdef4984	-0.11683944
147	0x3b31442e	0.0027048695
148	0xbc0e6561	-0.008691163
149	0x3dd3327a	0.10312362
150	0x3c22651e	0.0099118035
151	0xbe19bc29	-0.15013184
152	0x3ce24c48	0.027624264
153	0xbc679323	-0.014134201
154	0x3c85187c	0.016247027
155	0xbcf74939	-0.030186282
156	0xbda47937	-0.080309324
157	0xbe183ab0	-0.14866138
158	0x3e9e4247	0.3090994
159	0x3dc877b7	0.09788459
160	0xbd41753f	-0.047230955
161	0x3de52ef7	0.111905985
162	0xbdf036b9	-0.117291875
163	0x3d6466a7	0.05576196
164	0xbdbd14b9	-0.09232468
165	0x3d1e546d	0.038654733
166	0xbd12fadc	-0.03588377
167	0x3e0b99d5	0.13632901
168	0xbc5fc769	-0.013658383
169	0xbcd54685	-0.026034603
170	0xbc28fdb5	-0.010314395
171	0x3d363497	0.044483747
172	0x3d2fc4fe	0.042912476
173	0xbe71fc02	-0.2363129
174	0xbc3523de	-0.011055915
175	0x3f84cc3f	1.0374831
176	0x3d43c66b	0.047796648
177	0x3c3e91f0	0.011631474
178	0xbda22c3e	-0.07918595
179	0x3e6a80d4	0.22900707
180	0x3cae0bfe	0.021245953
181	0x3d285c14	0.041103438
182	0xbdb507f3	-0.08839407
183	0x3d72bb0c	0.059260413
184	0x3bd27e18	0.006423723
185	0x3caa7858	0.020809337
186	0x3c9ed41d	0.019388253
187	0x3b43d576	0.0029881871
188	0x3d8193c6	0.06327014
189	0x3b7d6f81	0.0038671198
190	0xbd144804	-0.036201492
191	0x3c0c9883	0.0085812835
192	0xbce5bdef	-0.028044669
193	0xbcc28589	-0.023745315
194	0xbcd47317	-0.025933785
195	0xbc35fafd	-0.011107204
196	0x3d08b45a	0.03337512
197	0x3cc8c128	0.024506167
198	0x3d65937b	0.05604885
199	0x3d3db06b	0.046310823
200	0x3f7c5e70	0.985816
201	0x3c75657a	0.014977807
202	0xbc8226ae	-0.015887585
203	0x3e4241dc	0.18970436
204	0x3d0c6306	0.034274124
205	0x3d252312	0.04031665
206	0xbe18c72f	-0.14919733
207	0x3d7fd0fc	0.062455162
208	0xbaef3bdd	-0.0018252094
209	0xbc91dcbf	-0.017805455
210	0x3cbb09b5	0.022831777
211	0x3d80f970	0.062975764
212	0x3d1797c4	0.03700997
213	0xbc9ca6e2	-0.019122545
214	0x3e083336	0.13300785
215	0x3a40ef44	0.0007359872
216	0x3c3791a6	0.011204159
217	0xbbb4e7d0	-0.0055207983
218	0xbb17c31f	-0.0023157073
219	0x39ca9b82	0.00038644305
220	0xbd39e901	-0.045388225
221	0xbd3e74dc	-0.046498165
222	0x3d670caa	0.05640856
223	0x3dc44dec	0.09585175
224	0xbae7778a	-0.0017659527
225	0x3f7b3bb4	0.98137975
226	0xbd4e67aa	-0.05039183
227	0x3dfda884	0.123856574
228	0xbb2cf5f2	-0.0026391712
229	0x3c0ca619	0.008584523
230	0x3e0cb0b5	0.13739283
231	0x3d0d4015	0.03448494
232	0xbceddac7	-0.029034985
233	0x3d244fe9	0.04011527
234	0xbce74974	-0.028233267
235	0x3d46444a	0.04840497
236	0xbd9cbd94	-0.07653347
237	0xbda80438	-0.0820393
238	0x3e0be214	0.1366046
239	0x3d23f153	0.040025067
240	0x39cf04b8	0.00039485632
241	0x3c95f95b	0.018307379
242	0x3db9149f	0.09037136
243	0x3c9efd78	0.019407973
244	0x3d06c5e8	0.03290358
245	0xbd404588	-0.04694131
246	0x3cf603aa	0.030031044
247	0xbd920737	-0.07130282
248	0xbcc70ac1	-0.02429712
249	0xbc1b2a20	-0.009470493
250	0x3f821bb8	1.0164709
251	0xbe325b6c	-0.17417687
252	0xbcd00763	-0.025394147
253	0xbdba35aa	-0.09092267
254	0x3db46ca0	0.08809781
255	0xbb85c4a4	-0.0040822793

bias f4 [12]
0	0xbc4830d5	-0.012218674
1	0x3d80f6e9	0.062970944
2	0xbd51d920	-0.051232457
3	0x3c87fedf	0.016601024
4	0xbd35a9c1	-0.044351343
5	0xbccd3447	-0.025049342
6	0x3cd44f50	0.025916725
7	0x3daabfc7	0.0833736
8	0xbcf1ccc6	-0.029516589
9	0x3cdd5915	0.027020017
10	0x3ca7f0c9	0.020500557
11	0xbd12ef21	-0.035872582

weight f4 [12, 24, 1, 1]
0	0xbe16fa33	-0.14743881
1	0xbcb6e786	-0.022327196
2	0xbdd90648	-0.10596901
3	0x3ddc054e	0.10743199
4	0x3dfd27f9	0.1236114
5	0x3dc18504	0.09449199
6	0xbd5c13fc	-0.053729996
7	0x3dc05d7d	0.093928315
8	0xbe0c3cac	-0.1369502
9	0x3d169a41	0.0367682
10	0xbd82dedb	-0.063901626
11	0xbdd06230	-0.10174978
12	0xbc68b333	-0.014202881
13	0x3b7b205c	0.0038318848
14	0x3d0d7d8e	0.034543566
15	0x3e2a6ec7	0.1664382
16	0xba93497d	-0.0011237111
17	0x3da49da1	0.08037878
18	0xbd99c049	-0.075073786
19	0x3e598770	0.21243072
20	0xbd5ddef4	-0.054167703
21	0x3cd9e0d2	0.02659646
22	0xbbc9bc9d	-0.0061565177
23	0x3dd87bd3	0.105704926
24	0xbb019e73	-0.001977828
25	0x3e1d6702	0.15371326
26	0xbbd2d89e	-0.006434514
27	0x3a81caa7	0.0009902314
28	0x3d629836	0.05532094
29	0x3e2e7a39	0.17038812
30	0x3e00ee99	0.12591018
31	0xbe396c4e	-0.18107721
32	0x3dcdc405	0.100471534
33	0x3d8e94d2	0.06961979
34	0x3da9a69c	0.08283731
35	0x3d9a0006	0.07519536
36	0xbe0b89f8	-0.1362685
37	0xbd6f17ea	-0.058372416
38	0xbd2de5de	-0.042455547
39	0x3c95625a	0.018235374
40	0xbe22b03a	-0.15887538
41	0x3de9e482	0.114205375
42	0xbe05cde1	-0.13066818
43	0xbbd6962f	-0.006548665
44	0xbc24dbb8	-0.010062151
45	0x3e08a9a7	0.13345967
46	0xbe85dea9	-0.2614644
47	0x3dd696d8	0.1047799
48	0x3d833ea9	0.06408436
49	0xbd70a99d	-0.058755506
50	0x3e844a92	0.25838143
51	0x3d51ce9a	0.05122242
52	0x3e18e80d	0.1493227
53	0xbd0df7eb	-0.03466026
54	0xb93086cb	-0.00016834882
55	0xbe00f6ee	-0.12594196
56	0xbe3da82c	-0.18521184
57	0xbc0dd49c	-0.008656647
58	0x3e0a94bc	0.135333
59	0xbe179a70	-0.14805007
60	0x3cde080c	0.027103446
61	0x3d3b3c1a	0.045711614
62	0x3d7ec89d	0.06220304
63	0x3dc5ee69	0.09664614
64	0xbe0218e5	-0.12704809
65	0x3d5b60c8	0.053559095
66	0x3db66030	0.08905065
67	0xbc0db453	-0.00864895
68	0xbda9fb46	-0.0829988
69	0x3df7a7dd	0.12092564
70	0x3e271e99	0.16320266
71	0x3da3d9ff	0.08000564
72	0x3e4e77a5	0.20162828
73	0xbe3f2407	-0.18666087
74	0xbeb2c9c5	-0.34919563
75	0xbea7d8f4	-0.3278271
76	0xbe3c8a6c	-0.18412179
77	0x3e9f2105	0.3107988
78	0xbe5fc180	-0.21851158
79	0x3ced26f7	0.028949244
80	0x3c8a690e	0.016895797
81	0x3e3f1b7a	0.18662825
82	0xbe8ee2db	-0.27907452
83	0x3d458447	0.048221853
84	0xbdfc3b43	-0.12315991
85	0x3e350bbf	0.17680262
86	0xbe45d447	-0.19319259
87	0x3e3bc6ed	0.18337603
88	0x3cb80b35	0.022466281
89	0xba84b9e3	-0.0010126199
90	0x3d08b1b4	0.033372596
91	0xbd760ff4	-0.060073808
92	0xbdf23545	-0.118265666
93	0x3e63b44f	0.22236751
94	0x3d95ea3e	0.07320069
95	0xbddcc9a1	-0.10780645
96	0xbd8ec5b5	-0.069713034
97	0x3d6207a2	0.05518306
98	0xbd28f593	-0.041249823
99	0xbd7ca05a	-0.06167636
100	0x3cb3e928	0.021961764
101	0xbd85ebf7	-0.06539147
102	0x3daeb527	0.08530646
103	0x3cdf3fe3	0.027252143
104	0xbcfe0cdf	-0.031011997
105	0x3d8ed820	0.06974816
106	0x3d606a8e	0.05478912
107	0xbd82c60e	-0.06385432
108	0xbe1a6d8c	-0.15080851
109	0x3d5078da	0.050896503
110	0xbedce62c	-0.43144357
111	0x3e6f14f9	0.23347844
112	0xbd10c1b1	-0.03534097
113	0xbdfe5599	-0.1241867
114	0x3d29d433	0.041462135
115	0x3d7c1f3f	0.061553236
116	0xbe2b1717	-0.16708027
117	0xbe8e57d2	-0.27801377
118	0x3f10d562	0.56575596
119	0x3db2e53c	0.08735129
120	0x3bfa02b0	0.007629715
121	0xbdb24c1a	-0.087059215
122	0x3df4a91a	0.11946316
123	0x3d914d1e	0.07094787
124	0x3dc211ed	0.09476075
125	0xbd3b6c68	-0.04575768
126	0x3c92e94b	0.017933508
127	0xbe618106	-0.22021875
128	0x3c35f85e	0.011106579
129	0x3d267fb7	0.040649142
130	0x3d9a426d	0.07532201
131	0xbe3937b7	-0.1808766
132	0x3d8695eb	0.06571563
133	0x3bb131db	0.0054075546
134	0x3e82871e	0.2549371
135	0x3ecaf2e0	0.39638424
136	0x3db1f952	0.08690132
137	0xbcb0a09a	-0.021560956
138	0x3e1c20b7	0.15246855
139	0x3d22fd04	0.039792076
140	0x3d6e888c	0.05823569
141	0x3d37e74f	0.044898327
142	0x3e320227	0.17383634
143	0x3db76fa0	0.08956838
144	0xbda5a8c7	-0.08088832
145	0xbd241fb8	-0.04006931
146	0x3cfff29c	0.031243615
147	0x3cb8b656	0.022547882
148	0xbd811f7d	-0.06304834
149	0x3d9d9c88	0.076958716
150	0xbd158714	-0.036505774
151	0xbd8e95d6	-0.06962173
152	0x3c309bd5	0.010779341
153	0xbc5c97c2	-0.013463916
154	0xbcb889d9	-0.022526668
155	0xbd6a0ff6	-0.057144128
156	0xbdd18124	-0.1022971
157	0x3eb7553e	0.35807222
158	0xbe1b7bf6	-0.15184006
159	0xbd8e99bb	-0.069629155
160	0xbda6640e	-0.08124553
161	0xbd529b6c	-0.051417753
162	0x3d867bad	0.06566558
163	0x3e96fcbe	0.29489702
164	0xbd94dc11	-0.07268537
165	0xbedab70b	-0.42717776
166	0x3e0305ce	0.12795183
167	0xbe4e741e	-0.20161483
168	0xbde3877a	-0.111098245
169	0x3dc68115	0.09692589
170	0xbd6f3e64	-0.05840911
171	0xbb8efe74	-0.0043638293
172	0xbd413864	-0.04717292
173	0x3d84073f	0.064466946
174	0x3dc9b395	0.09848706
175	0xbcb20cc9	-0.021734612
176	0xbc6b1336	-0.014347842
177	0xbd939533	-0.07206192
178	0x3bdee6a3	0.0068023964
179	0xbc915f92	-0.017745767
180	0xbe45fc5b	-0.19334547
181	0xbd877948	-0.066149294
182	0x3e2544d6	0.1613954
183	0x3ea54ad0	0.3228364
184	0x3d6c7b7b	0.057734948
185	0x3e713e5a	0.23558941
186	0x3dea9fb3	0.114562415
187	0xbdb17e1b	-0.08666631
188	0xbd9e6f62	-0.07736088
189	0x3e0f919c	0.1402039
190	0xbd427e6f	-0.047483858
191	0x3e0c3534	0.1369217
192	0xbd2ed5f1	-0.0426845
193	0x3dc47a37	0.09593623
194	0x3dc6d1aa	0.09707959
195	0x3be1c0ea	0.006889452
196	0x3d9e1d37	0.07720416
197	0xbe4833df	-0.19551037
198	0x3d8081b6	0.062747404
199	0xbdf0d878	-0.11760038
200	0xbdd83438	-0.10556835
201	0xbde48aaa	-0.111592606
202	0x3d92b02e	0.0716251
203	0xbe4ba1b5	-0.19885905
204	0xbe1fda5b	-0.1561064
205	0x3c8a934a	0.016915936
206	0xbe99755d	-0.29972354
207	0xbbf5f65f	-0.0075061764
208	0xbdcebd96	-0.100947544
209	0xbd8cd385	-0.06876282
210	0xbd6c2926	-0.05765643
211	0x3aa52991	0.0012600889
212	0x3dc79a59	0.09746236
213	0xbe603099	-0.21893539
214	0x3e19d691	0.15023257
215	0xbe785df1	-0.24254586
216	0x3d8056e3	0.06266572
217	0xbe8d3b30	-0.2758422
218	0x3de5d5d2	0.112224236
219	0x3d643e22	0.055723317
220	0xbd9b1df2	-0.07574071
221	0xbe905a77	-0.2819402
222	0x3bb1fd8c	0.0054318365
223	0x3e2caed5	0.16863568
224	0x3dfdf20f	0.12399685
225	0xbc944fc0	-0.018104434
226	0xbd216393	-0.039401602
227	0xbd98e24e	-0.07465039
228	0x3df7cf3f	0.12100076
229	0x3e7df6b5	0.24801143
230	0xbf00447f	-0.50104517
231	0xbe52381f	-0.20529221
232	0xbe536e55	-0.20647557
233	0xbe7344e3	-0.23756747
234	0x3e163fe9	0.14672817
235	0xbd99e78c	-0.07514867
236	0xbd4afafa	-0.049555756
237	0xbe9d5c89	-0.3073466
238	0x3e45768d	0.19283505
239	0xbe975a95	-0.29561296
240	0xbca95a89	-0.020673053
241	0xbb85154b	-0.004061376
242	0xbd16e962	-0.036843665
243	0xbdc78f0a	-0.097440794
244	0x3d30b35d	0.043139804
245	0x3e623e9f	0.220942
246	0xbd45ac12	-0.048259802
247	0x3e040c2c	0.12895268
248	0xbdd709ec	-0.10499939
249	0xbcbee94f	-0.02330461
250	0xbc030e55	-0.0079990225
251	0xbd4045d9	-0.046941612
252	0xbd942dd4	-0.072353035
253	0x3d67c9d1	0.05658895
254	0xbe4f6477	-0.20253168
255	0x3f111c70	0.5668402

bias f4 [12]
0	0x3eaf7104	0.34265912
1	0xbdbb329d	-0.09140513
2	0x3ebdd74f	0.3707833
3	0xbf7498fe	-0.9554595
4	0x3dfa6447	0.12226158
5	0x3e4a4a09	0.19754805
6	0x3e5d417b	0.2160701
7	0xbea1530d	-0.31508675
8	0x3e95dd80	0.29270554
9	0x3edc354c	0.43009412
10	0x3e99dc9d	0.30051127
11	0x3ef29eee	0.4738688

weight f4 [24, 24, 3, 3]
0	0xbd1b15d5	-0.037862618
1	0xbda915ad	-0.082560875
2	0x3cc6479b	0.024204066
3	0xbb556f97	-0.0032567733
4	0xbd5a0233	-0.053224754
5	0xbd9ab334	-0.075537115
6	0x3d93939f	0.07205891
7	0xbdb06dd9	-0.08614702
8	0x3bc33c4a	0.0059581148
9	0x3b68c8f0	0.0035520159
10	0xbc96a24c	-0.018387936
11	0xbcbb84e5	-0.022890517
12	0xbd288b44	-0.04114844
13	0x3d3da520	0.046300054
14	0xbcfcdb0f	-0.030866174
15	0x3c2ddedc	0.010612216
16	0x3cb63947	0.022244109
17	0xbd05f748	-0.03270653
18	0xbbae9889	-0.005328242
19	0x3d9359a7	0.07194834
20	0x3e050cae	0.12993118
21	0x3dc0ef7b	0.09420677
22	0xbd98d103	-0.07461741
23	0xbdeadbe2	-0.114677206
24	0x3d97a834	0.07405129
25	0x3d02d8e7	0.031945135
26	0x3e5292cc	0.20563811
27	0x3cf4d5f0	0.02988717
28	0xbb919f4e	-0.0044440394
29	0xbcf25341	-0.029580714
30	0xbd8f668d	-0.07001982
31	0xbd206b18	-0.039164633
32	0x3d0ed60f	0.03487211
33	0xbca33a9e	-0.019925412
34	0xbc07dc81	-0.008292318
35	0x3cbe16bf	0.023204206
36	0x3dabfa64	0.083973676
37	0x3d803840	0.06260729
38	0x3d927dc2	0.07152893
39	0x3c144b56	0.009051165
40	0xbd54538f	-0.0518375
41	0x3d77df48	0.060515672
42	0xbd7e39c1	-0.062066797
43	0xbd1e4698	-0.038641542
44	0xbb4a73b2	-0.0030891714
45	0xbb6392c9	-0.0034724942
46	0x3c77197d	0.0150817605
47	0xbbd73569	-0.0065676463
48	0xbcba8064	-0.0227663
49	0x3d6bd891	0.05757958
50	0x3dd66cd7	0.10469978
51	0x3b7e1be9	0.003877396
52	0x3d0173e3	0.03160466
53	0xbc80b21e	-0.015709933
54	0x3d429f9c	0.047515497
55	0x3df4a653	0.11945786
56	0xbd2f524d	-0.042803098
57	0x3da11012	0.07864393
58	0xbdbacb5e	-0.091208205
59	0x3d6105e7	0.05493727
60	0xbd742a60	-0.059610724
61	0xbbcc7ead	-0.006240687
62	0xbd98d676	-0.0746278
63	0xbcb0e586	-0.02159382
64	0xbe16ff1e	-0.14745757
65	0x3cb9265d	0.0226013
66	0xbc756c97	-0.014979503
67	0x3da9608a	0.082703665
68	0x3cbedbc4	0.023298152
69	0xbcf73298	-0.030175492
70	0xbd9ec1a8	-0.07751781
71	0xbcdf8d0c	-0.027288936
72	0x3c1791f6	0.009251108
73	0x3d3cf4d5	0.046131928
74	0xbbe13c76	-0.0068736626
75	0xb95a487e	-0.00020817106
76	0x3aebc2bd	0.0017987114
77	0xbd4d229d	-0.050081838
78	0x3d0333d5	0.032031853
79	0x3d1d025f	0.03833234
80	0x3d315060	0.043289542
81	0xbc06928a	-0.008213649
82	0x3d61f035	0.05516072
83	0xbcad4587	-0.021151317
84	0xbc9bb40d	-0.019006753
85	0x3cd4fcc9	0.025999444
86	0x3d1e235b	0.038607936
87	0xbae067d8	-0.0017120792
88	0xbcb48ec1	-0.022040727
89	0xbd44603f	-0.04794335
90	0xbdf930d5	-0.12167517
91	0x3d8189ff	0.06325149
92	0x3cedbf8d	0.029022003
93	0x3d9b0f21	0.07571245
94	0xbe0e97a6	-0.13925037
95	0xbdd82f8b	-0.10555943
96	0xbdb80297	-0.08984869
97	0xbc84c8c4	-0.016209014
98	0x3c7e8262	0.015534015
99	0x3cb2949c	0.021799378
100	0x3d91f715	0.07127205
101	0x3d3667b4	0.044532493
102	0x3d9888be	0.074479565
103	0x3d989072	0.07449426
104	0xbc993743	-0.018703109
105	0xbc85a2ce	-0.016312983
106	0x3ce9d20e	0.028542545
107	0xbc8c1815	-0.017101327
108	0xbd9af76e	-0.07566725
109	0xbd5e2e73	-0.054243516
110	0xbbb3645a	-0.0054746093
111	0x3ca3a088	0.019974008
112	0x3da82258	0.082096756
113	0x3e16c43b	0.14723293
114	0x3dd8987e	0.105759606
115	0x3cebe3de	0.028795179
116	0x3c4d2e15	0.012523194
117	0x3d9c5d1f	0.07634949
118	0x3d16b366	0.03679218
119	0xbd1ce8cb	-0.038307946
120	0xbd9e380c	-0.07725534
121	0xbdff31e5	-0.124606885
122	0xbd9593c5	-0.073035754
123	0x3a74b41c	0.00093347
124	0xbd08b427	-0.03337493
125	0x3d2747e6	0.040840052
126	0x3d94f1f4	0.072727114
127	0x3e00a825	0.12564142
128	0x3dbb94c1	0.09159232
129	0x3cbb92f9	0.02289723
130	0xbe189aa8	-0.14902747
131	0xbd7a512f	-0.06111258
132	0xbb7ec7ab	-0.0038876336
133	0x3dc48547	0.09595733
134	0x3dbec643	0.09315159
135	0x3d8010ad	0.06253181
136	0x3d5bd860	0.05367315
137	0x3d094efc	0.03352259
138	0x3cbfc4c1	0.02340925
139	0x3e148b80	0.1450634
140	0x3c13dbe6	0.009024596
141	0x3ddf61c8	0.10907322
142	0x3e0da637	0.13832937
143	0xbd1abbb7	-0.037776675
144	0x3d1b7bee	0.037959985
145	0xbd21e6e6	-0.039526843
146	0x3cce9006	0.02521516
147	0xbd6495b6	-0.055806838
148	0xbd991439	-0.0747456
149	0xbd3a2e83	-0.045454513
150	0x3cef74a9	0.029230433
151	0xbd4d2b56	-0.050090156
152	0xbd7ae764	-0.061255828
153	0x3c292e92	0.010326045
154	0x3d96de01	0.07366563
155	0xbc0a9f86	-0.008460885
156	0x3d8e7904	0.06956676
157	0x3d027945	0.031853933
158	0xbd20acae	-0.03922718
159	0x3b9eac7a	0.004842338
160	0x3d751007	0.059829738
161	0x3d46e848	0.048561364
162	0x3bdf005b	0.0068054623
163	0xbc942f7d	-0.01808905
164	0xbb201ce8	-0.0024431292
165	0xbd920965	-0.07130698
166	0xbd072bf1	-0.03300089
167	0xbd757015	-0.059921343
168	0xb893e9cd	-7.053055e-05
169	0xbd918594	-0.07105556
170	0x3c80b586	0.015711557
171	0xbda73926	-0.08165197
172	0xbd5724c5	-0.0525253
173	0xbd0859eb	-0.033288877
174	0x3bd696e7	0.0065487507
175	0xbcc63a0f	-0.024197606
176	0x3dc1ee86	0.09469323
177	0xbbb4b1a9	-0.005514343
178	0x3c7370b7	0.014858416
179	0x3d646e8e	0.055769496
180	0x3c817c61	0.015806379
181	0x3ce73e22	0.02822787
182	0x3ddc951e	0.10770629
183	0xbd0277e0	-0.031852603
184	0xbda575b4	-0.08079091
185	0xbe1e3aea	-0.15452161
186	0x3d6e1cef	0.058133062
187	0xbd13bcc1	-0.03606868
188	0x3d20cf0b	0.03925995
189	0x3d90a094	0.07061878
190	0xbd2b1adb	-0.04177366
191	0x3dd74a65	0.105122365
192	0xbd800c3d	-0.06252334
193	0x3d99ae5a	0.07503958
194	0xbd7e6419	-0.06210718
195	0xbd08bbf5	-0.033382375
196	0xbccac3cc	-0.024751566
197	0xbca861af	-0.020554392
198	0xbdce0632	-0.100597754
199	0xbdf8b66b	-0.121441685
200	0xbc36f72e	-0.011167331
201	0x3de56f64	0.11202887
202	0x3e8ca9d8	0.2747333
203	0x3d916dac	0.071009964
204	0xbd818b71	-0.063254245
205	0xbd1cb019	-0.038253877
206	0xbe3eb70b	-0.18624513
207	0xbdaa6828	-0.083206475
208	0xbe206231	-0.15662457
209	0xbd3f140e	-0.046649985
210	0x3d8ef2d2	0.06979908
211	0x3e33af91	0.17547442
212	0x3de0c8ba	0.109757856
213	0x3d50f906	0.051018737
214	0xbca144dd	-0.019686157
215	0xbcaf3015	-0.021385232
216	0x3d097e6e	0.03356784
217	0x3cdc6aac	0.026906334
218	0x3ce8ef53	0.028434431
219	0xbc931c12	-0.01795772
220	0x3df6fb8f	0.120597
221	0xbc6ebdee	-0.01457165
222	0x3c5265f9	0.012841695
223	0x3c0f2148	0.008735962
224	0xbbcb9adf	-0.0062135304
225	0xbbff1fd6	-0.0077857776
226	0xbd12793c	-0.03576015
227	0x3c0bee1d	0.008540657
228	0xbdc3bc84	-0.09557441
229	0xbd11e3eb	-0.03561775
230	0xbcd13a89	-0.025540607
231	0x3c5f9556	0.013646444
232	0xbd5b18a2	-0.05349029
233	0x3ce5d3c5	0.028055081
234	0x3d41374f	0.047171887
235	0x3d2bcc75	0.041943032
236	0x3d904d82	0.070460334
237	0x3de7fdea	0.11327727
238	0xbe5ae0a6	-0.21374759
239	0xbb9e849a	-0.0048375847
240	0xbc80fca9	-0.015745478
241	0x3db324f2	0.08747281
242	0x3da2422f	0.0792278
243	0x3cbd11db	0.023079803
244	0xbcd5f2ee	-0.026116814
245	0x3dae63cf	0.08515131
246	0xbd0d7ee0	-0.034544826
247	0xbd286769	-0.041114245
248	0xbd013bd9	-0.031551216
249	0x3c872bfe	0.01650047
250	0x3dcf365e	0.101177916
251	0xbcaec504	-0.021334179
252	0x3d2593ea	0.040424265
253	0x3bc445fa	0.005989787
254	0x3d837e8b	0.064206205
255	0xbc297888	-0.010343678

bias f4 [24]
0	0x3e340598	0.17580259
1	0x3f3a65a2	0.7281133
2	0x3dab7c60	0.08373332
3	0xbe88d06a	-0.26721507
4	0x3debbac3	0.11510231
5	0x3ef5017f	0.47852704
6	0x3ee226bf	0.44170186
7	0x3eb948c1	0.3618832
8	0x3e07eaf4	0.13273221
9	0x3efd4946	0.49469966
10	0x3edde738	0.43340468
11	0x3fdf64d1	1.7452642
12	0x3d51d0e7	0.051224615
13	0x3f29559c	0.66146255
14	0xbdf5eb16	-0.1200773
15	0x3ce9ebea	0.028554875
16	0xbd7052ba	-0.058672644
17	0x3e68f116	0.22748217
18	0x3dcfc286	0.10144524
19	0x3f166e4f	0.5876207
20	0x3d449b7f	0.047999855
21	0xbe309b98	-0.17246854
22	0x3e96f1a2	0.29481226
23	0xbdd42af6	-0.10359757

weight f4 [12, 24, 1, 1]
0	0xbcd5234e	-0.026017811
1	0xbd433659	-0.04765925
2	0x3e93c995	0.28864732
3	0x3e7cffc0	0.24706936
4	0xbe765926	-0.24057445
5	0x3df655bc	0.12028071
6	0xbd1d96e3	-0.038473975
7	0x3d6659ec	0.0562381
8	0x3e48fc9b	0.19627611
9	0x3d717360	0.05894792
10	0xbd076ec2	-0.03306461
11	0xbc52c55f	-0.01286444
12	0xbd8b56fe	-0.06803702
13	0x3d99ec10	0.075157285
14	0xbdab1067	-0.08352738
15	0xbc07be06	-0.008285051
16	0x3d2c6edf	0.042097922
17	0xbdf2cd3a	-0.1185555
18	0x3c171e2b	0.009223501
19	0x3d0fca4a	0.035105027
20	0xbd614520	-0.054997563
21	0xbcb24d52	-0.021765385
22	0x3d99c72d	0.07508693
23	0xbce50f0a	-0.027961273
24	0x3e31500b	0.1731569
25	0x3d52e54c	0.051488206
26	0x3dedd99b	0.116137706
27	0x3e0c0e82	0.1367741
28	0x3e88d6d8	0.26726413
29	0xbd914fec	-0.07095322
30	0x3e429a8e	0.1900427
31	0x3e845782	0.25848013
32	0xbe411464	-0.18855435
33	0xbe8b063a	-0.27153188
34	0x3e2cdec8	0.1688186
35	0x3e98e01c	0.29858482
36	0xbd9899cd	-0.0745121
37	0xbc91a239	-0.01777755
38	0xbd80fe0a	-0.06298454
39	0xbbb37cac	-0.0054775085
40	0x3da7ff08	0.0820294
41	0x3d207231	0.0391714
42	0x3d8fa34f	0.070135705
43	0x3d2313b6	0.03981372
44	0xbd5015d7	-0.050802078
45	0xbe10fd98	-0.14159238
46	0xbd07bebc	-0.033140883
47	0x3d9bd089	0.07608134
48	0x3c97c0df	0.018524585
49	0x3e1ac5f5	0.15114577
50	0x3e1d96be	0.15389535
51	0x3e5d42f4	0.21607572
52	0x3e07251c	0.1319775
53	0xbdbf6600	-0.09345627
54	0x3e272b08	0.16325009
55	0x3be19bda	0.006885034
56	0x3ddf398e	0.108996496
57	0x3dcf6ada	0.10127802
58	0xbe0832b3	-0.1330059
59	0x3d9dea56	0.07710712
60	0xbcc6085c	-0.024173908
61	0x3da43ce1	0.08019424
62	0xbd8b9992	-0.068164006
63	0xbcebba3d	-0.028775329
64	0xbdb7b3cb	-0.0896984
65	0x3d675958	0.05648169
66	0x3e07e2fe	0.13270184
67	0x3d81903f	0.06326341
68	0xbd7aa38c	-0.061191127
69	0x3d95e99b	0.07319947
70	0xbddff89e	-0.10936092
71	0x3e06d28d	0.13166256
72	0x3a11b2f9	0.000555798
73	0xbe32f277	-0.17475305
74	0xbd06f1e5	-0.032945532
75	0x3a96ee09	0.0011515032
76	0x3e138386	0.14405641
77	0x3de63241	0.11240054
78	0x3e18ede0	0.14934492
79	0x3cc4fd8f	0.024046687
80	0xbcaf9c9e	-0.021436986
81	0x3d3eb9fe	0.046564095
82	0x3db51dad	0.08843551
83	0xbd4ad4a4	-0.049519196
84	0x3ded92a7	0.11600237
85	0x3da45343	0.080236934
86	0x3acc059c	0.0015565637
87	0xbc72a0ab	-0.014808814
88	0x3d76dc34	0.060268596
89	0x3c72e3e8	0.014824845
90	0x3d316a1f	0.043314096
91	0xbca51fb5	-0.02015672
92	0xbcf8b082	-0.030357603
93	0x3dac20ec	0.08404717
94	0xbb55ff84	-0.003265352
95	0x3e441129	0.19147171
96	0x3d8ce8bc	0.06880328
97	0xbc130d68	-0.008975364
98	0x3dc8728a	0.097874716
99	0x3e1c87de	0.15286204
100	0x3e085dba	0.13317004
101	0xbdfadf96	-0.12249677
102	0xbb6b03e5	-0.0035860476
103	0x3e664dff	0.2249069
104	0x3eb103c5	0.34573188
105	0x3e966ff8	0.293823
106	0x3c6bffb6	0.014404228
107	0x3c232ca1	0.009959371
108	0xbe19409b	-0.14966051
109	0xbd8ec23c	-0.06970641
110	0xbc8c17ff	-0.017101286
111	0x3d646fa4	0.05577053
112	0xbc331a2e	-0.010931535
113	0xbc1ea7b5	-0.009683539
114	0x3c23cd76	0.009997716
115	0xbccb1d27	-0.024794174
116	0x3c8b103f	0.01697552
117	0x3e193ae8	0.14963877
118	0xbd871a68	-0.065968335
119	0xb8dab435	-0.00010428616
120	0x3c352ea8	0.011058487
121	0xbe119ff1	-0.14221169
122	0xbe42122e	-0.18952248
123	0x3e608afc	0.21928018
124	0xbc5e4219	-0.013565564
125	0xbdca62f2	-0.098821536
126	0x3d9ddb70	0.0770787
127	0x3be4f53e	0.006987243
128	0x3e019ec5	0.12658222
129	0x3e10d7f6	0.14144883
130	0x3dd5aee0	0.104337454
131	0xbd21b002	-0.039474495
132	0xbdbce3a5	-0.09223107
133	0x3dd065c8	0.10175663
134	0x3b70b648	0.0036729742
135	0x3d146753	0.03623135
136	0xbd39de5b	-0.04537807
137	0x3c61a269	0.013771632
138	0xbcbec4e1	-0.023287239
139	0x3bf0b7a7	0.007346112
140	0xbd7a157c	-0.061055645
141	0x3d36ad7b	0.044599038
142	0xbb9d0c09	-0.0047926945
143	0xbd33e36c	-0.04391806
144	0x3d8a31fd	0.06747816
145	0x3e455cc1	0.19273664
146	0xbe2aec02	-0.16691592
147	0x3d9bb1fd	0.07602308
148	0x3dffbacf	0.12486803
149	0x3e14a988	0.14517796
150	0x3d3bc420	0.045841336
151	0x3e45d104	0.19318014
152	0xbcb99c4f	-0.022657542
153	0x3dfd7450	0.123757005
154	0xbe5eca0a	-0.2175676
155	0x3d9f9f12	0.07794012
156	0x3e289b28	0.16465437
157	0x3ddf2eee	0.10897623
158	0x3d89ff8e	0.06738196
159	0x3d242327	0.040072586
160	0x3d80217c	0.06256387
161	0x3d7ba38b	0.061435264
162	0xbc914381	-0.017732384
163	0xbcc6f1b7	-0.02428518
164	0x3d0bb254	0.034105614
165	0x3da60b0e	0.08107577
166	0x3b51ea02	0.0032030349
167	0x3dee37f2	0.116317645
168	0x3e0d5eee	0.13805744
169	0xbd0ebf36	-0.03485032
170	0xbe857a78	-0.2607
171	0x3de991aa	0.11404736
172	0x3e5e15ed	0.21688052
173	0x3d98f8f0	0.07469356
174	0x3c74a873	0.01493274
175	0xbe8d6263	-0.27614126
176	0x3c199ef2	0.009376274
177	0x3e89873e	0.26860994
178	0x3cb0262e	0.02150258
179	0xbde70f12	-0.11282171
180	0xbc2254ca	-0.009907911
181	0x3e2bc956	0.16776022
182	0x3e95ceac	0.2925924
183	0x3dffaf4d	0.12484608
184	0x3ddb439e	0.10706256
185	0xbe0027d8	-0.12515199
186	0x3d9268d9	0.07148904
187	0xbcba345f	-0.02273005
188	0xbda6f8a8	-0.08152896
189	0x3d7831e4	0.060594454
190	0xbd2ab431	-0.04167575
191	0x3d5b6f1b	0.053572755
192	0x3d159c8e	0.036526255
193	0xbdd05f55	-0.10174433
194	0x3c63bf9c	0.013900664
195	0x3d7482de	0.059695117
196	0xbccbc584	-0.024874456
197	0x3d21c251	0.039491955
198	0xbe22de6a	-0.15905157
199	0x3cd42033	0.02589426
200	0x3c15df60	0.009147495
201	0x3d97e2b3	0.07416286
202	0x3e25d3f0	0.16194129
203	0xbcb6e416	-0.022325557
204	0xbc2e1286	-0.0106245335
205	0x3da70647	0.08155494
206	0x3c2fba90	0.010725632
207	0xbcbb5ea9	-0.022872286
208	0xbd374627	-0.044744637
209	0x3e07eb45	0.13273342
210	0x3bf314dc	0.007418258
211	0x3cb7a06d	0.022415364
212	0x3dd65b0c	0.104665846
213	0x3d828c87	0.0637446
214	0x3dd019b8	0.101611555
215	0xbd199f71	-0.03750557
216	0x3dfe4a73	0.12416544
217	0x3cb0a01e	0.021560725
218	0xbe418ac1	-0.18900587
219	0x3b3c958a	0.0028775656
220	0xbe8727e6	-0.26397628
221	0x3dbf890b	0.09352311
222	0xbea30b48	-0.31844544
223	0xbdcb1124	-0.09915379
224	0x3b0371d5	0.0020056863
225	0x3c898910	0.01678899
226	0x3d973f2d	0.07385097
227	0x3d981401	0.074256904
228	0xbeeb5ccd	-0.4596924
229	0x3e4d4b47	0.20048247
230	0x3d3c7ef1	0.0460195
231	0xbdbe5a6a	-0.09294589
232	0x3dae8e61	0.0852325
233	0x3d929817	0.07157915
234	0x3e5d7760	0.21627569
235	0x3de195ee	0.11014925
236	0xbd02ece0	-0.031964183
237	0xbd1a48c8	-0.037667066
238	0xbc6ae269	-0.014336207
239	0xbd0408b9	-0.03223488
240	0x3dc8d24f	0.09805738
241	0x3dc8e28f	0.098088376
242	0xbc9e1c5b	-0.01930063
243	0xbda57066	-0.08078079
244	0x3d98e43d	0.07465408
245	0x3e0901ee	0.13379642
246	0x3db6f303	0.089330696
247	0x3dc3547c	0.095375985
248	0x3e0fd277	0.1404513
249	0x3dc0bd57	0.09411114
250	0xbd34680c	-0.04404454
251	0x3cbbe302	0.022935394
252	0xbe4935d1	-0.19649436
253	0x3d7641c5	0.060121316
254	0xbd8cdcf9	-0.06878085
255	0x3d66f9e8	0.056390673

bias f4 [12]
0	0x3ede1cff	0.43381497
1	0x3f1f3ba0	0.62200356
2	0x3e4e7e94	0.20165473
3	0x3e186fa9	0.14886345
4	0xbdb92b46	-0.09041457
5	0x3dda0904	0.10646251
6	0x3e700ca7	0.23442326
7	0xbd3bf68a	-0.045889415
8	0x3dd2f2e0	0.10300231
9	0x3ebe21ac	0.37135065
10	0x3e2e5c6b	0.17027442
11	0xbe0b4db8	-0.13603866

weight f4 [24, 24, 3, 3]
0	0x3dded77f	0.10880946
1	0x3e2a828e	0.16651365
2	0x3e3be6a2	0.18349698
3	0x3e2c275b	0.16811888
4	0x3e05077b	0.12991135
5	0x3e175125	0.14777048
6	0x3e0436ef	0.1291158
7	0x3e22fc3c	0.15916532
8	0x3e139d87	0.1441556
9	0x3d13a578	0.036046475
10	0xbdc53052	-0.09628357
11	0xbd1c3e84	-0.038145557
12	0xbd6a7bee	-0.057247095
13	0x3dfa167a	0.12211318
14	0xbaca077c	-0.0015413607
15	0xbb69ead6	-0.0035692952
16	0xbd0cb43a	-0.034351565
17	0xbd89c957	-0.06727856
18	0x3c8735a6	0.016505074
19	0xbe294de5	-0.1653362
20	0xbd0c6f37	-0.03428575
21	0x3e24a715	0.16079362
22	0xbe0e8a5e	-0.1391997
23	0x3db2c11a	0.087282375
24	0xbd3c5729	-0.04598156
25	0xbd2bede3	-0.041974913
26	0x3cfe4b5b	0.031041792
27	0x3c065899	0.008199834
28	0x3d14aecd	0.036299516
29	0xbe1e7ade	-0.15476558
30	0xbc81a755	-0.01582686
31	0xbd8d1ece	-0.06890641
32	0xbc609c04	-0.013709072
33	0xbd283610	-0.041067183
34	0x3d7c6826	0.06162276
35	0x3cdb8183	0.026795154
36	0xbd0357bc	-0.032066092
37	0x3e79e35c	0.24403137
38	0x3c3645a5	0.011125003
39	0xbbc95a1e	-0.006144776
40	0x3e17fabd	0.14841743
41	0xbd5b4354	-0.053531006
42	0xbb392300	-0.0028249621
43	0xbd25ff56	-0.04052671
44	0x3c447e35	0.011992981
45	0x3bbf1026	0.0058307825
46	0xbc48e5b0	-0.012261793
47	0x3ae88bf9	0.001774191
48	0x3b4bb5c4	0.0031083683
49	0x3b28508c	0.0025682775
50	0x3bcd4e60	0.0062654465
51	0x3ce9363e	0.028468248
52	0x3c94686a	0.018116195
53	0xbc0a77ed	-0.008451444
54	0xbcb49b99	-0.022046851
55	0x3c80ed67	0.015738202
56	0xbde44a4e	-0.11146985
57	0x3d577a06	0.052606605
58	0x3d56e4a1	0.05246413
59	0xbdb70d36	-0.08938067
60	0x3d894a14	0.067035824
61	0xbc210640	-0.00982815
62	0x3d1f6bfd	0.038921345
63	0x3c88c816	0.01669697
64	0x3db319da	0.08745165
65	0xba75c0b2	-0.0009374722
66	0x3c588e9d	0.013217595
67	0x3df91696	0.12162511
68	0x3d62f599	0.05541
69	0x3ac26c05	0.0014833218
70	0x3d7b5139	0.061356757
71	0xbbc66263	-0.006054209
72	0xbd964a91	-0.07338441
73	0xbdfbdc64	-0.122978956
74	0x3d280423	0.04101957
75	0x3deabcf9	0.11461825
76	0xbc95da20	-0.018292487
77	0x3d372ace	0.044718556
78	0xbd6fef71	-0.05857796
79	0xbc677f08	-0.014129408
80	0xbd934c3a	-0.071922734
81	0xbcc75d0c	-0.02433636
82	0xbd826692	-0.0636722
83	0xbcf8181e	-0.030284937
84	0xbcb7f682	-0.022456411
85	0x3d6b3879	0.057426903
86	0x3c137ca4	0.009001885
87	0xbd77d1e8	-0.060502917
88	0x39c93f95	0.0003838508
89	0xbe03f3af	-0.12885927
90	0xbcc9392e	-0.024563398
91	0x3cec2cac	0.028829895
92	0x3d4919c0	0.049096823
93	0x3c0e9105	0.008701568
94	0xbdd9972b	-0.10624536
95	0x3d2c6589	0.04208902
96	0xbd43af4b	-0.047774594
97	0x3d923a84	0.07140067
98	0xbd4b13c8	-0.04957941
99	0xbcf1d086	-0.029518377
100	0xbd813a82	-0.063099876
101	0x3cb36041	0.021896483
102	0x3cfdd4ca	0.030985255
103	0x3e045064	0.12921292
104	0x3d6a2942	0.057168253
105	0x3d48ea29	0.049051438
106	0x3c337393	0.010952848
107	0xbcd6c0a5	-0.026214907
108	0xbc9d1dd2	-0.019179258
109	0xbd809f84	-0.06280425
110	0x3d05f5a2	0.032704957
111	0xbd4e91ae	-0.0504319
112	0xbd0bb79f	-0.03411066
113	0x3e098ff2	0.13433817
114	0xbbee0b89	-0.0072645587
115	0xbe03be8e	-0.1286566
116	0xbdd682ff	-0.10474204
117	0xbce56cbd	-0.028005952
118	0x3db9afb4	0.09066716
119	0x3d169996	0.036767565
120	0x3c7c2779	0.01539027
121	0x3cf4155f	0.029795347
122	0x3c4e3cac	0.0125877075
123	0x3d0ed4ec	0.034871027
124	0xbd0995d4	-0.033590153
125	0x3c8ecf45	0.017432818
126	0x3cca5cd0	0.02470246
127	0x3bf8861a	0.0075843455
128	0x3cc19218	0.023629233
129	0x3d22c915	0.039742548
130	0xbd56d866	-0.052452467
131	0x3cb585ee	0.02215859
132	0x3aaade79	0.0013036273
133	0xbbf3c3db	-0.0074391193
134	0x3be0fc54	0.0068660174
135	0x3d482d7b	0.0488715
136	0xbb8411d6	-0.0040304465
137	0x3d988c11	0.074485905
138	0xbda3666e	-0.07978521
139	0xbd52f055	-0.05149873
140	0x3dcec99f	0.1009705
141	0xbca19780	-0.019725561
142	0x3c87f231	0.016594978
143	0x3c8865a0	0.016650021
144	0x3d86cba8	0.06581813
145	0x3ccb0a6e	0.024785247
146	0xbbe0eb6e	-0.006864003
147	0x3e0c89cb	0.13724439
148	0x3e1bf0fc	0.15228647
149	0x3d88528a	0.06656368
150	0xbb051585	-0.0020307016
151	0xbdadae1a	-0.08480473
152	0xbce02cc5	-0.027365098
153	0xbc596771	-0.013269291
154	0xbcb9653b	-0.022631278
155	0x3c9cfd1f	0.019163666
156	0x3c0a8a12	0.00845577
157	0xbd2f8579	-0.0428519
158	0x3cb516f4	0.022105671
159	0x3cea1aca	0.028577227
160	0xbca94aa6	-0.020665478
161	0x3d37841c	0.044803724
162	0x3da5cd92	0.0809585
163	0x3cdbf5bc	0.026850574
164	0x3c145d1f	0.009055405
165	0xbb9cb72e	-0.004782579
166	0x3c4b25a2	0.012399109
167	0xbbec7c93	-0.007216999
168	0x3d4279da	0.047479488
169	0x3bc5e830	0.006039642
170	0x3db09191	0.086215146
171	0xbde11063	-0.10989454
172	0xbd148981	-0.036263946
173	0xbd3bd9fe	-0.04586219
174	0xbca8cffd	-0.020606989
175	0x3cbfbbd7	0.023404999
176	0x3c9d09f2	0.019169781
177	0xbcc7e0df	-0.02439922
178	0xbdacf495	-0.08445088
179	0xbe102241	-0.14075567
180	0x3d14223d	0.036165465
181	0x3e405431	0.18782116
182	0x3e08d15d	0.13361116
183	0x3e3a67d5	0.18203671
184	0x3e0cc7fc	0.13748163
185	0x3d9808e3	0.0742357
186	0x3e1ce9e8	0.15323603
187	0x3e1305bb	0.14357655
188	0x3d79463d	0.060858
189	0xbcfe4e10	-0.031043082
190	0x3d32a85c	0.04361759
191	0xbcf6b5a4	-0.03011591
192	0xbd9ca60e	-0.0764886
193	0xbc60e6f3	-0.013726938
194	0xbd369767	-0.044577982
195	0xbc21bc8c	-0.009871613
196	0xbd05d17d	-0.032670487
197	0xbdf5590c	-0.11979875
198	0xbd724f20	-0.05915749
199	0x3c3d875f	0.0115679195
200	0xbc543bcb	-0.012953709
201	0x3c6b4b6f	0.0143612465
202	0xbba8222e	-0.0051310277
203	0x3d71c110	0.05902201
204	0xbaf37a46	-0.0018575869
205	0x3c0164b3	0.007897544
206	0x3b4adf42	0.0030955826
207	0xbdd76d22	-0.10518862
208	0xbc388055	-0.0112610655
209	0x3d9bce8b	0.07607754
210	0x3bb60db9	0.005555835
211	0x3eae32d5	0.34023157
212	0x3d450a10	0.0481053
213	0xbd85b1ee	-0.06528078
214	0xbc85de15	-0.016341249
215	0xbe50b9f7	-0.2038344
216	0x3d51c486	0.05121281
217	0x3b8cf11b	0.004301203
218	0xbda1389d	-0.07872126
219	0xbb91dd9b	-0.0044514663
220	0x3d8240d4	0.06360021
221	0xbd242605	-0.04007532
222	0xbd2c4e5d	-0.04206692
223	0xbdd8b080	-0.1058054
224	0xbe0e59d0	-0.13901448
225	0xbd4fb61d	-0.050710786
226	0xbdbabbcf	-0.09117853
227	0xbc2835e6	-0.010266757
228	0xbcd72f42	-0.026267651
229	0xbc85d971	-0.016339036
230	0xbe0624d8	-0.13099992
231	0x3c670b62	0.014101835
232	0xb8b30028	-8.535414e-05
233	0xbd44c67a	-0.048040845
234	0xbc9f9de4	-0.019484468
235	0x3c4c1b1e	0.012457637
236	0xbdad0f62	-0.084502
237	0x3dbe7a1c	0.09300634
238	0x3e60da9e	0.21958396
239	0x3c23f4f0	0.010007128
240	0xbc48af7f	-0.012248873
241	0xbcb2bfee	-0.021820035
242	0xbe1337c2	-0.14376739
243	0xbd8f504c	-0.06997737
244	0x3d534ebc	0.05158876
245	0xbd8b0ba8	-0.06789333
246	0x3c962a98	0.018330857
247	0x3db9853c	0.090586156
248	0x3cb53a7c	0.022122614
249	0xbd8219d4	-0.063525826
250	0x3ce9480f	0.028476743
251	0x3d2a9366	0.041644476
252	0xbcb3ceae	-0.021949138
253	0x3d7286e4	0.059210673
254	0xbbee4d9f	-0.0072724367
255	0xbdede8d8	-0.11616677

bias f4 [24]
0	0x3e7ba580	0.24574852
1	0x3f2e352c	0.68049884
2	0xbdbfaa03	-0.09358599
3	0x3e2bd01f	0.1677861
4	0x3e73e529	0.23817886
5	0x3f1c76b2	0.61118615
6	0x3e1fa71a	0.15591088
7	0x3e50f654	0.20406467
8	0x3e920b1d	0.28524104
9	0x3eaed8fb	0.34149918
10	0x3f2ce258	0.67532873
11	0x3fc4a028	1.5361376
12	0xbd3f7140	-0.046738863
13	0x3ebbd8e6	0.36688918
14	0x3e2743ab	0.16334407
15	0xbd52fd82	-0.051511295
16	0x3e067b11	0.13132884
17	0x3e1f974e	0.15585062
18	0x3e40cede	0.18828914
19	0x3f224db9	0.63399845
20	0x3da71ddb	0.08159991
21	0x3c811677	0.015757782
22	0x3e6ce9ee	0.23136112
23	0xbc9a9728	-0.018870905
